{"modelTopology": {"keras_version": "2.2.2", "model_config": {"class_name": "Model", "config": {"layers": [{"class_name": "InputLayer", "inbound_nodes": [], "config": {"dtype": "float32", "batch_input_shape": [null, 299, 299, 3], "name": "input_1", "sparse": false}, "name": "input_1"}, {"class_name": "Conv2D", "inbound_nodes": [[["input_1", 0, 0, {}]]], "config": {"kernel_initializer": {"class_name": "VarianceScaling", "config": {"distribution": "uniform", "scale": 1.0, "seed": null, "mode": "fan_avg"}}, "name": "conv2d_1", "kernel_constraint": null, "bias_regularizer": null, "bias_constraint": null, "activation": "linear", "trainable": true, "data_format": "channels_last", "padding": "valid", "strides": [2, 2], "dilation_rate": [1, 1], "kernel_regularizer": null, "filters": 32, "bias_initializer": {"class_name": "Zeros", "config": {}}, "use_bias": false, "activity_regularizer": null, "kernel_size": [3, 3]}, "name": "conv2d_1"}, {"class_name": "BatchNormalization", "inbound_nodes": [[["conv2d_1", 0, 0, {}]]], "config": {"gamma_initializer": {"class_name": "Ones", "config": {}}, "moving_mean_initializer": {"class_name": "Zeros", "config": {}}, "name": "batch_normalization_1", "epsilon": 0.001, "trainable": true, "center": true, "moving_variance_initializer": {"class_name": "Ones", "config": {}}, "beta_initializer": {"class_name": "Zeros", "config": {}}, "scale": false, "gamma_regularizer": null, "gamma_constraint": null, "beta_constraint": null, "beta_regularizer": null, "momentum": 0.99, "axis": 3}, "name": "batch_normalization_1"}, {"class_name": "Activation", "inbound_nodes": [[["batch_normalization_1", 0, 0, {}]]], "config": {"activation": "relu", "trainable": true, "name": "activation_1"}, "name": "activation_1"}, {"class_name": "Conv2D", "inbound_nodes": [[["activation_1", 0, 0, {}]]], "config": {"kernel_initializer": {"class_name": "VarianceScaling", "config": {"distribution": "uniform", "scale": 1.0, "seed": null, "mode": "fan_avg"}}, "name": "conv2d_2", "kernel_constraint": null, "bias_regularizer": null, "bias_constraint": null, "activation": "linear", "trainable": true, "data_format": "channels_last", "padding": "valid", "strides": [1, 1], "dilation_rate": [1, 1], "kernel_regularizer": null, "filters": 32, "bias_initializer": {"class_name": "Zeros", "config": {}}, "use_bias": false, "activity_regularizer": null, "kernel_size": [3, 3]}, "name": "conv2d_2"}, {"class_name": "BatchNormalization", "inbound_nodes": [[["conv2d_2", 0, 0, {}]]], "config": {"gamma_initializer": {"class_name": "Ones", "config": {}}, "moving_mean_initializer": {"class_name": "Zeros", "config": {}}, "name": "batch_normalization_2", "epsilon": 0.001, "trainable": true, "center": true, "moving_variance_initializer": {"class_name": "Ones", "config": {}}, "beta_initializer": {"class_name": "Zeros", "config": {}}, "scale": false, "gamma_regularizer": null, "gamma_constraint": null, "beta_constraint": null, "beta_regularizer": null, "momentum": 0.99, "axis": 3}, "name": "batch_normalization_2"}, {"class_name": "Activation", "inbound_nodes": [[["batch_normalization_2", 0, 0, {}]]], "config": {"activation": "relu", "trainable": true, "name": "activation_2"}, "name": "activation_2"}, {"class_name": "Conv2D", "inbound_nodes": [[["activation_2", 0, 0, {}]]], "config": {"kernel_initializer": {"class_name": "VarianceScaling", "config": {"distribution": "uniform", "scale": 1.0, "seed": null, "mode": "fan_avg"}}, "name": "conv2d_3", "kernel_constraint": null, "bias_regularizer": null, "bias_constraint": null, "activation": "linear", "trainable": true, "data_format": "channels_last", "padding": "same", "strides": [1, 1], "dilation_rate": [1, 1], "kernel_regularizer": null, "filters": 64, "bias_initializer": {"class_name": "Zeros", "config": {}}, "use_bias": false, "activity_regularizer": null, "kernel_size": [3, 3]}, "name": "conv2d_3"}, {"class_name": "BatchNormalization", "inbound_nodes": [[["conv2d_3", 0, 0, {}]]], "config": {"gamma_initializer": {"class_name": "Ones", "config": {}}, "moving_mean_initializer": {"class_name": "Zeros", "config": {}}, "name": "batch_normalization_3", "epsilon": 0.001, "trainable": true, "center": true, "moving_variance_initializer": {"class_name": "Ones", "config": {}}, "beta_initializer": {"class_name": "Zeros", "config": {}}, "scale": false, "gamma_regularizer": null, "gamma_constraint": null, "beta_constraint": null, "beta_regularizer": null, "momentum": 0.99, "axis": 3}, "name": "batch_normalization_3"}, {"class_name": "Activation", "inbound_nodes": [[["batch_normalization_3", 0, 0, {}]]], "config": {"activation": "relu", "trainable": true, "name": "activation_3"}, "name": "activation_3"}, {"class_name": "MaxPooling2D", "inbound_nodes": [[["activation_3", 0, 0, {}]]], "config": {"name": "max_pooling2d_1", "trainable": true, "data_format": "channels_last", "pool_size": [3, 3], "padding": "valid", "strides": [2, 2]}, "name": "max_pooling2d_1"}, {"class_name": "Conv2D", "inbound_nodes": [[["max_pooling2d_1", 0, 0, {}]]], "config": {"kernel_initializer": {"class_name": "VarianceScaling", "config": {"distribution": "uniform", "scale": 1.0, "seed": null, "mode": "fan_avg"}}, "name": "conv2d_4", "kernel_constraint": null, "bias_regularizer": null, "bias_constraint": null, "activation": "linear", "trainable": true, "data_format": "channels_last", "padding": "valid", "strides": [1, 1], "dilation_rate": [1, 1], "kernel_regularizer": null, "filters": 80, "bias_initializer": {"class_name": "Zeros", "config": {}}, "use_bias": false, "activity_regularizer": null, "kernel_size": [1, 1]}, "name": "conv2d_4"}, {"class_name": "BatchNormalization", "inbound_nodes": [[["conv2d_4", 0, 0, {}]]], "config": {"gamma_initializer": {"class_name": "Ones", "config": {}}, "moving_mean_initializer": {"class_name": "Zeros", "config": {}}, "name": "batch_normalization_4", "epsilon": 0.001, "trainable": true, "center": true, "moving_variance_initializer": {"class_name": "Ones", "config": {}}, "beta_initializer": {"class_name": "Zeros", "config": {}}, "scale": false, "gamma_regularizer": null, "gamma_constraint": null, "beta_constraint": null, "beta_regularizer": null, "momentum": 0.99, "axis": 3}, "name": "batch_normalization_4"}, {"class_name": "Activation", "inbound_nodes": [[["batch_normalization_4", 0, 0, {}]]], "config": {"activation": "relu", "trainable": true, "name": "activation_4"}, "name": "activation_4"}, {"class_name": "Conv2D", "inbound_nodes": [[["activation_4", 0, 0, {}]]], "config": {"kernel_initializer": {"class_name": "VarianceScaling", "config": {"distribution": "uniform", "scale": 1.0, "seed": null, "mode": "fan_avg"}}, "name": "conv2d_5", "kernel_constraint": null, "bias_regularizer": null, "bias_constraint": null, "activation": "linear", "trainable": true, "data_format": "channels_last", "padding": "valid", "strides": [1, 1], "dilation_rate": [1, 1], "kernel_regularizer": null, "filters": 192, "bias_initializer": {"class_name": "Zeros", "config": {}}, "use_bias": false, "activity_regularizer": null, "kernel_size": [3, 3]}, "name": "conv2d_5"}, {"class_name": "BatchNormalization", "inbound_nodes": [[["conv2d_5", 0, 0, {}]]], "config": {"gamma_initializer": {"class_name": "Ones", "config": {}}, "moving_mean_initializer": {"class_name": "Zeros", "config": {}}, "name": "batch_normalization_5", "epsilon": 0.001, "trainable": true, "center": true, "moving_variance_initializer": {"class_name": "Ones", "config": {}}, "beta_initializer": {"class_name": "Zeros", "config": {}}, "scale": false, "gamma_regularizer": null, "gamma_constraint": null, "beta_constraint": null, "beta_regularizer": null, "momentum": 0.99, "axis": 3}, "name": "batch_normalization_5"}, {"class_name": "Activation", "inbound_nodes": [[["batch_normalization_5", 0, 0, {}]]], "config": {"activation": "relu", "trainable": true, "name": "activation_5"}, "name": "activation_5"}, {"class_name": "MaxPooling2D", "inbound_nodes": [[["activation_5", 0, 0, {}]]], "config": {"name": "max_pooling2d_2", "trainable": true, "data_format": "channels_last", "pool_size": [3, 3], "padding": "valid", "strides": [2, 2]}, "name": "max_pooling2d_2"}, {"class_name": "Conv2D", "inbound_nodes": [[["max_pooling2d_2", 0, 0, {}]]], "config": {"kernel_initializer": {"class_name": "VarianceScaling", "config": {"distribution": "uniform", "scale": 1.0, "seed": null, "mode": "fan_avg"}}, "name": "conv2d_9", "kernel_constraint": null, "bias_regularizer": null, "bias_constraint": null, "activation": "linear", "trainable": true, "data_format": "channels_last", "padding": "same", "strides": [1, 1], "dilation_rate": [1, 1], "kernel_regularizer": null, "filters": 64, "bias_initializer": {"class_name": "Zeros", "config": {}}, "use_bias": false, "activity_regularizer": null, "kernel_size": [1, 1]}, "name": "conv2d_9"}, {"class_name": "BatchNormalization", "inbound_nodes": [[["conv2d_9", 0, 0, {}]]], "config": {"gamma_initializer": {"class_name": "Ones", "config": {}}, "moving_mean_initializer": {"class_name": "Zeros", "config": {}}, "name": "batch_normalization_9", "epsilon": 0.001, "trainable": true, "center": true, "moving_variance_initializer": {"class_name": "Ones", "config": {}}, "beta_initializer": {"class_name": "Zeros", "config": {}}, "scale": false, "gamma_regularizer": null, "gamma_constraint": null, "beta_constraint": null, "beta_regularizer": null, "momentum": 0.99, "axis": 3}, "name": "batch_normalization_9"}, {"class_name": "Activation", "inbound_nodes": [[["batch_normalization_9", 0, 0, {}]]], "config": {"activation": "relu", "trainable": true, "name": "activation_9"}, "name": "activation_9"}, {"class_name": "Conv2D", "inbound_nodes": [[["max_pooling2d_2", 0, 0, {}]]], "config": {"kernel_initializer": {"class_name": "VarianceScaling", "config": {"distribution": "uniform", "scale": 1.0, "seed": null, "mode": "fan_avg"}}, "name": "conv2d_7", "kernel_constraint": null, "bias_regularizer": null, "bias_constraint": null, "activation": "linear", "trainable": true, "data_format": "channels_last", "padding": "same", "strides": [1, 1], "dilation_rate": [1, 1], "kernel_regularizer": null, "filters": 48, "bias_initializer": {"class_name": "Zeros", "config": {}}, "use_bias": false, "activity_regularizer": null, "kernel_size": [1, 1]}, "name": "conv2d_7"}, {"class_name": "Conv2D", "inbound_nodes": [[["activation_9", 0, 0, {}]]], "config": {"kernel_initializer": {"class_name": "VarianceScaling", "config": {"distribution": "uniform", "scale": 1.0, "seed": null, "mode": "fan_avg"}}, "name": "conv2d_10", "kernel_constraint": null, "bias_regularizer": null, "bias_constraint": null, "activation": "linear", "trainable": true, "data_format": "channels_last", "padding": "same", "strides": [1, 1], "dilation_rate": [1, 1], "kernel_regularizer": null, "filters": 96, "bias_initializer": {"class_name": "Zeros", "config": {}}, "use_bias": false, "activity_regularizer": null, "kernel_size": [3, 3]}, "name": "conv2d_10"}, {"class_name": "BatchNormalization", "inbound_nodes": [[["conv2d_7", 0, 0, {}]]], "config": {"gamma_initializer": {"class_name": "Ones", "config": {}}, "moving_mean_initializer": {"class_name": "Zeros", "config": {}}, "name": "batch_normalization_7", "epsilon": 0.001, "trainable": true, "center": true, "moving_variance_initializer": {"class_name": "Ones", "config": {}}, "beta_initializer": {"class_name": "Zeros", "config": {}}, "scale": false, "gamma_regularizer": null, "gamma_constraint": null, "beta_constraint": null, "beta_regularizer": null, "momentum": 0.99, "axis": 3}, "name": "batch_normalization_7"}, {"class_name": "BatchNormalization", "inbound_nodes": [[["conv2d_10", 0, 0, {}]]], "config": {"gamma_initializer": {"class_name": "Ones", "config": {}}, "moving_mean_initializer": {"class_name": "Zeros", "config": {}}, "name": "batch_normalization_10", "epsilon": 0.001, "trainable": true, "center": true, "moving_variance_initializer": {"class_name": "Ones", "config": {}}, "beta_initializer": {"class_name": "Zeros", "config": {}}, "scale": false, "gamma_regularizer": null, "gamma_constraint": null, "beta_constraint": null, "beta_regularizer": null, "momentum": 0.99, "axis": 3}, "name": "batch_normalization_10"}, {"class_name": "Activation", "inbound_nodes": [[["batch_normalization_7", 0, 0, {}]]], "config": {"activation": "relu", "trainable": true, "name": "activation_7"}, "name": "activation_7"}, {"class_name": "Activation", "inbound_nodes": [[["batch_normalization_10", 0, 0, {}]]], "config": {"activation": "relu", "trainable": true, "name": "activation_10"}, "name": "activation_10"}, {"class_name": "AveragePooling2D", "inbound_nodes": [[["max_pooling2d_2", 0, 0, {}]]], "config": {"name": "average_pooling2d_1", "trainable": true, "data_format": "channels_last", "pool_size": [3, 3], "padding": "same", "strides": [1, 1]}, "name": "average_pooling2d_1"}, {"class_name": "Conv2D", "inbound_nodes": [[["max_pooling2d_2", 0, 0, {}]]], "config": {"kernel_initializer": {"class_name": "VarianceScaling", "config": {"distribution": "uniform", "scale": 1.0, "seed": null, "mode": "fan_avg"}}, "name": "conv2d_6", "kernel_constraint": null, "bias_regularizer": null, "bias_constraint": null, "activation": "linear", "trainable": true, "data_format": "channels_last", "padding": "same", "strides": [1, 1], "dilation_rate": [1, 1], "kernel_regularizer": null, "filters": 64, "bias_initializer": {"class_name": "Zeros", "config": {}}, "use_bias": false, "activity_regularizer": null, "kernel_size": [1, 1]}, "name": "conv2d_6"}, {"class_name": "Conv2D", "inbound_nodes": [[["activation_7", 0, 0, {}]]], "config": {"kernel_initializer": {"class_name": "VarianceScaling", "config": {"distribution": "uniform", "scale": 1.0, "seed": null, "mode": "fan_avg"}}, "name": "conv2d_8", "kernel_constraint": null, "bias_regularizer": null, "bias_constraint": null, "activation": "linear", "trainable": true, "data_format": "channels_last", "padding": "same", "strides": [1, 1], "dilation_rate": [1, 1], "kernel_regularizer": null, "filters": 64, "bias_initializer": {"class_name": "Zeros", "config": {}}, "use_bias": false, "activity_regularizer": null, "kernel_size": [5, 5]}, "name": "conv2d_8"}, {"class_name": "Conv2D", "inbound_nodes": [[["activation_10", 0, 0, {}]]], "config": {"kernel_initializer": {"class_name": "VarianceScaling", "config": {"distribution": "uniform", "scale": 1.0, "seed": null, "mode": "fan_avg"}}, "name": "conv2d_11", "kernel_constraint": null, "bias_regularizer": null, "bias_constraint": null, "activation": "linear", "trainable": true, "data_format": "channels_last", "padding": "same", "strides": [1, 1], "dilation_rate": [1, 1], "kernel_regularizer": null, "filters": 96, "bias_initializer": {"class_name": "Zeros", "config": {}}, "use_bias": false, "activity_regularizer": null, "kernel_size": [3, 3]}, "name": "conv2d_11"}, {"class_name": "Conv2D", "inbound_nodes": [[["average_pooling2d_1", 0, 0, {}]]], "config": {"kernel_initializer": {"class_name": "VarianceScaling", "config": {"distribution": "uniform", "scale": 1.0, "seed": null, "mode": "fan_avg"}}, "name": "conv2d_12", "kernel_constraint": null, "bias_regularizer": null, "bias_constraint": null, "activation": "linear", "trainable": true, "data_format": "channels_last", "padding": "same", "strides": [1, 1], "dilation_rate": [1, 1], "kernel_regularizer": null, "filters": 32, "bias_initializer": {"class_name": "Zeros", "config": {}}, "use_bias": false, "activity_regularizer": null, "kernel_size": [1, 1]}, "name": "conv2d_12"}, {"class_name": "BatchNormalization", "inbound_nodes": [[["conv2d_6", 0, 0, {}]]], "config": {"gamma_initializer": {"class_name": "Ones", "config": {}}, "moving_mean_initializer": {"class_name": "Zeros", "config": {}}, "name": "batch_normalization_6", "epsilon": 0.001, "trainable": true, "center": true, "moving_variance_initializer": {"class_name": "Ones", "config": {}}, "beta_initializer": {"class_name": "Zeros", "config": {}}, "scale": false, "gamma_regularizer": null, "gamma_constraint": null, "beta_constraint": null, "beta_regularizer": null, "momentum": 0.99, "axis": 3}, "name": "batch_normalization_6"}, {"class_name": "BatchNormalization", "inbound_nodes": [[["conv2d_8", 0, 0, {}]]], "config": {"gamma_initializer": {"class_name": "Ones", "config": {}}, "moving_mean_initializer": {"class_name": "Zeros", "config": {}}, "name": "batch_normalization_8", "epsilon": 0.001, "trainable": true, "center": true, "moving_variance_initializer": {"class_name": "Ones", "config": {}}, "beta_initializer": {"class_name": "Zeros", "config": {}}, "scale": false, "gamma_regularizer": null, "gamma_constraint": null, "beta_constraint": null, "beta_regularizer": null, "momentum": 0.99, "axis": 3}, "name": "batch_normalization_8"}, {"class_name": "BatchNormalization", "inbound_nodes": [[["conv2d_11", 0, 0, {}]]], "config": {"gamma_initializer": {"class_name": "Ones", "config": {}}, "moving_mean_initializer": {"class_name": "Zeros", "config": {}}, "name": "batch_normalization_11", "epsilon": 0.001, "trainable": true, "center": true, "moving_variance_initializer": {"class_name": "Ones", "config": {}}, "beta_initializer": {"class_name": "Zeros", "config": {}}, "scale": false, "gamma_regularizer": null, "gamma_constraint": null, "beta_constraint": null, "beta_regularizer": null, "momentum": 0.99, "axis": 3}, "name": "batch_normalization_11"}, {"class_name": "BatchNormalization", "inbound_nodes": [[["conv2d_12", 0, 0, {}]]], "config": {"gamma_initializer": {"class_name": "Ones", "config": {}}, "moving_mean_initializer": {"class_name": "Zeros", "config": {}}, "name": "batch_normalization_12", "epsilon": 0.001, "trainable": true, "center": true, "moving_variance_initializer": {"class_name": "Ones", "config": {}}, "beta_initializer": {"class_name": "Zeros", "config": {}}, "scale": false, "gamma_regularizer": null, "gamma_constraint": null, "beta_constraint": null, "beta_regularizer": null, "momentum": 0.99, "axis": 3}, "name": "batch_normalization_12"}, {"class_name": "Activation", "inbound_nodes": [[["batch_normalization_6", 0, 0, {}]]], "config": {"activation": "relu", "trainable": true, "name": "activation_6"}, "name": "activation_6"}, {"class_name": "Activation", "inbound_nodes": [[["batch_normalization_8", 0, 0, {}]]], "config": {"activation": "relu", "trainable": true, "name": "activation_8"}, "name": "activation_8"}, {"class_name": "Activation", "inbound_nodes": [[["batch_normalization_11", 0, 0, {}]]], "config": {"activation": "relu", "trainable": true, "name": "activation_11"}, "name": "activation_11"}, {"class_name": "Activation", "inbound_nodes": [[["batch_normalization_12", 0, 0, {}]]], "config": {"activation": "relu", "trainable": true, "name": "activation_12"}, "name": "activation_12"}, {"class_name": "Concatenate", "inbound_nodes": [[["activation_6", 0, 0, {}], ["activation_8", 0, 0, {}], ["activation_11", 0, 0, {}], ["activation_12", 0, 0, {}]]], "config": {"trainable": true, "name": "mixed0", "axis": 3}, "name": "mixed0"}, {"class_name": "Conv2D", "inbound_nodes": [[["mixed0", 0, 0, {}]]], "config": {"kernel_initializer": {"class_name": "VarianceScaling", "config": {"distribution": "uniform", "scale": 1.0, "seed": null, "mode": "fan_avg"}}, "name": "conv2d_16", "kernel_constraint": null, "bias_regularizer": null, "bias_constraint": null, "activation": "linear", "trainable": true, "data_format": "channels_last", "padding": "same", "strides": [1, 1], "dilation_rate": [1, 1], "kernel_regularizer": null, "filters": 64, "bias_initializer": {"class_name": "Zeros", "config": {}}, "use_bias": false, "activity_regularizer": null, "kernel_size": [1, 1]}, "name": "conv2d_16"}, {"class_name": "BatchNormalization", "inbound_nodes": [[["conv2d_16", 0, 0, {}]]], "config": {"gamma_initializer": {"class_name": "Ones", "config": {}}, "moving_mean_initializer": {"class_name": "Zeros", "config": {}}, "name": "batch_normalization_16", "epsilon": 0.001, "trainable": true, "center": true, "moving_variance_initializer": {"class_name": "Ones", "config": {}}, "beta_initializer": {"class_name": "Zeros", "config": {}}, "scale": false, "gamma_regularizer": null, "gamma_constraint": null, "beta_constraint": null, "beta_regularizer": null, "momentum": 0.99, "axis": 3}, "name": "batch_normalization_16"}, {"class_name": "Activation", "inbound_nodes": [[["batch_normalization_16", 0, 0, {}]]], "config": {"activation": "relu", "trainable": true, "name": "activation_16"}, "name": "activation_16"}, {"class_name": "Conv2D", "inbound_nodes": [[["mixed0", 0, 0, {}]]], "config": {"kernel_initializer": {"class_name": "VarianceScaling", "config": {"distribution": "uniform", "scale": 1.0, "seed": null, "mode": "fan_avg"}}, "name": "conv2d_14", "kernel_constraint": null, "bias_regularizer": null, "bias_constraint": null, "activation": "linear", "trainable": true, "data_format": "channels_last", "padding": "same", "strides": [1, 1], "dilation_rate": [1, 1], "kernel_regularizer": null, "filters": 48, "bias_initializer": {"class_name": "Zeros", "config": {}}, "use_bias": false, "activity_regularizer": null, "kernel_size": [1, 1]}, "name": "conv2d_14"}, {"class_name": "Conv2D", "inbound_nodes": [[["activation_16", 0, 0, {}]]], "config": {"kernel_initializer": {"class_name": "VarianceScaling", "config": {"distribution": "uniform", "scale": 1.0, "seed": null, "mode": "fan_avg"}}, "name": "conv2d_17", "kernel_constraint": null, "bias_regularizer": null, "bias_constraint": null, "activation": "linear", "trainable": true, "data_format": "channels_last", "padding": "same", "strides": [1, 1], "dilation_rate": [1, 1], "kernel_regularizer": null, "filters": 96, "bias_initializer": {"class_name": "Zeros", "config": {}}, "use_bias": false, "activity_regularizer": null, "kernel_size": [3, 3]}, "name": "conv2d_17"}, {"class_name": "BatchNormalization", "inbound_nodes": [[["conv2d_14", 0, 0, {}]]], "config": {"gamma_initializer": {"class_name": "Ones", "config": {}}, "moving_mean_initializer": {"class_name": "Zeros", "config": {}}, "name": "batch_normalization_14", "epsilon": 0.001, "trainable": true, "center": true, "moving_variance_initializer": {"class_name": "Ones", "config": {}}, "beta_initializer": {"class_name": "Zeros", "config": {}}, "scale": false, "gamma_regularizer": null, "gamma_constraint": null, "beta_constraint": null, "beta_regularizer": null, "momentum": 0.99, "axis": 3}, "name": "batch_normalization_14"}, {"class_name": "BatchNormalization", "inbound_nodes": [[["conv2d_17", 0, 0, {}]]], "config": {"gamma_initializer": {"class_name": "Ones", "config": {}}, "moving_mean_initializer": {"class_name": "Zeros", "config": {}}, "name": "batch_normalization_17", "epsilon": 0.001, "trainable": true, "center": true, "moving_variance_initializer": {"class_name": "Ones", "config": {}}, "beta_initializer": {"class_name": "Zeros", "config": {}}, "scale": false, "gamma_regularizer": null, "gamma_constraint": null, "beta_constraint": null, "beta_regularizer": null, "momentum": 0.99, "axis": 3}, "name": "batch_normalization_17"}, {"class_name": "Activation", "inbound_nodes": [[["batch_normalization_14", 0, 0, {}]]], "config": {"activation": "relu", "trainable": true, "name": "activation_14"}, "name": "activation_14"}, {"class_name": "Activation", "inbound_nodes": [[["batch_normalization_17", 0, 0, {}]]], "config": {"activation": "relu", "trainable": true, "name": "activation_17"}, "name": "activation_17"}, {"class_name": "AveragePooling2D", "inbound_nodes": [[["mixed0", 0, 0, {}]]], "config": {"name": "average_pooling2d_2", "trainable": true, "data_format": "channels_last", "pool_size": [3, 3], "padding": "same", "strides": [1, 1]}, "name": "average_pooling2d_2"}, {"class_name": "Conv2D", "inbound_nodes": [[["mixed0", 0, 0, {}]]], "config": {"kernel_initializer": {"class_name": "VarianceScaling", "config": {"distribution": "uniform", "scale": 1.0, "seed": null, "mode": "fan_avg"}}, "name": "conv2d_13", "kernel_constraint": null, "bias_regularizer": null, "bias_constraint": null, "activation": "linear", "trainable": true, "data_format": "channels_last", "padding": "same", "strides": [1, 1], "dilation_rate": [1, 1], "kernel_regularizer": null, "filters": 64, "bias_initializer": {"class_name": "Zeros", "config": {}}, "use_bias": false, "activity_regularizer": null, "kernel_size": [1, 1]}, "name": "conv2d_13"}, {"class_name": "Conv2D", "inbound_nodes": [[["activation_14", 0, 0, {}]]], "config": {"kernel_initializer": {"class_name": "VarianceScaling", "config": {"distribution": "uniform", "scale": 1.0, "seed": null, "mode": "fan_avg"}}, "name": "conv2d_15", "kernel_constraint": null, "bias_regularizer": null, "bias_constraint": null, "activation": "linear", "trainable": true, "data_format": "channels_last", "padding": "same", "strides": [1, 1], "dilation_rate": [1, 1], "kernel_regularizer": null, "filters": 64, "bias_initializer": {"class_name": "Zeros", "config": {}}, "use_bias": false, "activity_regularizer": null, "kernel_size": [5, 5]}, "name": "conv2d_15"}, {"class_name": "Conv2D", "inbound_nodes": [[["activation_17", 0, 0, {}]]], "config": {"kernel_initializer": {"class_name": "VarianceScaling", "config": {"distribution": "uniform", "scale": 1.0, "seed": null, "mode": "fan_avg"}}, "name": "conv2d_18", "kernel_constraint": null, "bias_regularizer": null, "bias_constraint": null, "activation": "linear", "trainable": true, "data_format": "channels_last", "padding": "same", "strides": [1, 1], "dilation_rate": [1, 1], "kernel_regularizer": null, "filters": 96, "bias_initializer": {"class_name": "Zeros", "config": {}}, "use_bias": false, "activity_regularizer": null, "kernel_size": [3, 3]}, "name": "conv2d_18"}, {"class_name": "Conv2D", "inbound_nodes": [[["average_pooling2d_2", 0, 0, {}]]], "config": {"kernel_initializer": {"class_name": "VarianceScaling", "config": {"distribution": "uniform", "scale": 1.0, "seed": null, "mode": "fan_avg"}}, "name": "conv2d_19", "kernel_constraint": null, "bias_regularizer": null, "bias_constraint": null, "activation": "linear", "trainable": true, "data_format": "channels_last", "padding": "same", "strides": [1, 1], "dilation_rate": [1, 1], "kernel_regularizer": null, "filters": 64, "bias_initializer": {"class_name": "Zeros", "config": {}}, "use_bias": false, "activity_regularizer": null, "kernel_size": [1, 1]}, "name": "conv2d_19"}, {"class_name": "BatchNormalization", "inbound_nodes": [[["conv2d_13", 0, 0, {}]]], "config": {"gamma_initializer": {"class_name": "Ones", "config": {}}, "moving_mean_initializer": {"class_name": "Zeros", "config": {}}, "name": "batch_normalization_13", "epsilon": 0.001, "trainable": true, "center": true, "moving_variance_initializer": {"class_name": "Ones", "config": {}}, "beta_initializer": {"class_name": "Zeros", "config": {}}, "scale": false, "gamma_regularizer": null, "gamma_constraint": null, "beta_constraint": null, "beta_regularizer": null, "momentum": 0.99, "axis": 3}, "name": "batch_normalization_13"}, {"class_name": "BatchNormalization", "inbound_nodes": [[["conv2d_15", 0, 0, {}]]], "config": {"gamma_initializer": {"class_name": "Ones", "config": {}}, "moving_mean_initializer": {"class_name": "Zeros", "config": {}}, "name": "batch_normalization_15", "epsilon": 0.001, "trainable": true, "center": true, "moving_variance_initializer": {"class_name": "Ones", "config": {}}, "beta_initializer": {"class_name": "Zeros", "config": {}}, "scale": false, "gamma_regularizer": null, "gamma_constraint": null, "beta_constraint": null, "beta_regularizer": null, "momentum": 0.99, "axis": 3}, "name": "batch_normalization_15"}, {"class_name": "BatchNormalization", "inbound_nodes": [[["conv2d_18", 0, 0, {}]]], "config": {"gamma_initializer": {"class_name": "Ones", "config": {}}, "moving_mean_initializer": {"class_name": "Zeros", "config": {}}, "name": "batch_normalization_18", "epsilon": 0.001, "trainable": true, "center": true, "moving_variance_initializer": {"class_name": "Ones", "config": {}}, "beta_initializer": {"class_name": "Zeros", "config": {}}, "scale": false, "gamma_regularizer": null, "gamma_constraint": null, "beta_constraint": null, "beta_regularizer": null, "momentum": 0.99, "axis": 3}, "name": "batch_normalization_18"}, {"class_name": "BatchNormalization", "inbound_nodes": [[["conv2d_19", 0, 0, {}]]], "config": {"gamma_initializer": {"class_name": "Ones", "config": {}}, "moving_mean_initializer": {"class_name": "Zeros", "config": {}}, "name": "batch_normalization_19", "epsilon": 0.001, "trainable": true, "center": true, "moving_variance_initializer": {"class_name": "Ones", "config": {}}, "beta_initializer": {"class_name": "Zeros", "config": {}}, "scale": false, "gamma_regularizer": null, "gamma_constraint": null, "beta_constraint": null, "beta_regularizer": null, "momentum": 0.99, "axis": 3}, "name": "batch_normalization_19"}, {"class_name": "Activation", "inbound_nodes": [[["batch_normalization_13", 0, 0, {}]]], "config": {"activation": "relu", "trainable": true, "name": "activation_13"}, "name": "activation_13"}, {"class_name": "Activation", "inbound_nodes": [[["batch_normalization_15", 0, 0, {}]]], "config": {"activation": "relu", "trainable": true, "name": "activation_15"}, "name": "activation_15"}, {"class_name": "Activation", "inbound_nodes": [[["batch_normalization_18", 0, 0, {}]]], "config": {"activation": "relu", "trainable": true, "name": "activation_18"}, "name": "activation_18"}, {"class_name": "Activation", "inbound_nodes": [[["batch_normalization_19", 0, 0, {}]]], "config": {"activation": "relu", "trainable": true, "name": "activation_19"}, "name": "activation_19"}, {"class_name": "Concatenate", "inbound_nodes": [[["activation_13", 0, 0, {}], ["activation_15", 0, 0, {}], ["activation_18", 0, 0, {}], ["activation_19", 0, 0, {}]]], "config": {"trainable": true, "name": "mixed1", "axis": 3}, "name": "mixed1"}, {"class_name": "Conv2D", "inbound_nodes": [[["mixed1", 0, 0, {}]]], "config": {"kernel_initializer": {"class_name": "VarianceScaling", "config": {"distribution": "uniform", "scale": 1.0, "seed": null, "mode": "fan_avg"}}, "name": "conv2d_23", "kernel_constraint": null, "bias_regularizer": null, "bias_constraint": null, "activation": "linear", "trainable": true, "data_format": "channels_last", "padding": "same", "strides": [1, 1], "dilation_rate": [1, 1], "kernel_regularizer": null, "filters": 64, "bias_initializer": {"class_name": "Zeros", "config": {}}, "use_bias": false, "activity_regularizer": null, "kernel_size": [1, 1]}, "name": "conv2d_23"}, {"class_name": "BatchNormalization", "inbound_nodes": [[["conv2d_23", 0, 0, {}]]], "config": {"gamma_initializer": {"class_name": "Ones", "config": {}}, "moving_mean_initializer": {"class_name": "Zeros", "config": {}}, "name": "batch_normalization_23", "epsilon": 0.001, "trainable": true, "center": true, "moving_variance_initializer": {"class_name": "Ones", "config": {}}, "beta_initializer": {"class_name": "Zeros", "config": {}}, "scale": false, "gamma_regularizer": null, "gamma_constraint": null, "beta_constraint": null, "beta_regularizer": null, "momentum": 0.99, "axis": 3}, "name": "batch_normalization_23"}, {"class_name": "Activation", "inbound_nodes": [[["batch_normalization_23", 0, 0, {}]]], "config": {"activation": "relu", "trainable": true, "name": "activation_23"}, "name": "activation_23"}, {"class_name": "Conv2D", "inbound_nodes": [[["mixed1", 0, 0, {}]]], "config": {"kernel_initializer": {"class_name": "VarianceScaling", "config": {"distribution": "uniform", "scale": 1.0, "seed": null, "mode": "fan_avg"}}, "name": "conv2d_21", "kernel_constraint": null, "bias_regularizer": null, "bias_constraint": null, "activation": "linear", "trainable": true, "data_format": "channels_last", "padding": "same", "strides": [1, 1], "dilation_rate": [1, 1], "kernel_regularizer": null, "filters": 48, "bias_initializer": {"class_name": "Zeros", "config": {}}, "use_bias": false, "activity_regularizer": null, "kernel_size": [1, 1]}, "name": "conv2d_21"}, {"class_name": "Conv2D", "inbound_nodes": [[["activation_23", 0, 0, {}]]], "config": {"kernel_initializer": {"class_name": "VarianceScaling", "config": {"distribution": "uniform", "scale": 1.0, "seed": null, "mode": "fan_avg"}}, "name": "conv2d_24", "kernel_constraint": null, "bias_regularizer": null, "bias_constraint": null, "activation": "linear", "trainable": true, "data_format": "channels_last", "padding": "same", "strides": [1, 1], "dilation_rate": [1, 1], "kernel_regularizer": null, "filters": 96, "bias_initializer": {"class_name": "Zeros", "config": {}}, "use_bias": false, "activity_regularizer": null, "kernel_size": [3, 3]}, "name": "conv2d_24"}, {"class_name": "BatchNormalization", "inbound_nodes": [[["conv2d_21", 0, 0, {}]]], "config": {"gamma_initializer": {"class_name": "Ones", "config": {}}, "moving_mean_initializer": {"class_name": "Zeros", "config": {}}, "name": "batch_normalization_21", "epsilon": 0.001, "trainable": true, "center": true, "moving_variance_initializer": {"class_name": "Ones", "config": {}}, "beta_initializer": {"class_name": "Zeros", "config": {}}, "scale": false, "gamma_regularizer": null, "gamma_constraint": null, "beta_constraint": null, "beta_regularizer": null, "momentum": 0.99, "axis": 3}, "name": "batch_normalization_21"}, {"class_name": "BatchNormalization", "inbound_nodes": [[["conv2d_24", 0, 0, {}]]], "config": {"gamma_initializer": {"class_name": "Ones", "config": {}}, "moving_mean_initializer": {"class_name": "Zeros", "config": {}}, "name": "batch_normalization_24", "epsilon": 0.001, "trainable": true, "center": true, "moving_variance_initializer": {"class_name": "Ones", "config": {}}, "beta_initializer": {"class_name": "Zeros", "config": {}}, "scale": false, "gamma_regularizer": null, "gamma_constraint": null, "beta_constraint": null, "beta_regularizer": null, "momentum": 0.99, "axis": 3}, "name": "batch_normalization_24"}, {"class_name": "Activation", "inbound_nodes": [[["batch_normalization_21", 0, 0, {}]]], "config": {"activation": "relu", "trainable": true, "name": "activation_21"}, "name": "activation_21"}, {"class_name": "Activation", "inbound_nodes": [[["batch_normalization_24", 0, 0, {}]]], "config": {"activation": "relu", "trainable": true, "name": "activation_24"}, "name": "activation_24"}, {"class_name": "AveragePooling2D", "inbound_nodes": [[["mixed1", 0, 0, {}]]], "config": {"name": "average_pooling2d_3", "trainable": true, "data_format": "channels_last", "pool_size": [3, 3], "padding": "same", "strides": [1, 1]}, "name": "average_pooling2d_3"}, {"class_name": "Conv2D", "inbound_nodes": [[["mixed1", 0, 0, {}]]], "config": {"kernel_initializer": {"class_name": "VarianceScaling", "config": {"distribution": "uniform", "scale": 1.0, "seed": null, "mode": "fan_avg"}}, "name": "conv2d_20", "kernel_constraint": null, "bias_regularizer": null, "bias_constraint": null, "activation": "linear", "trainable": true, "data_format": "channels_last", "padding": "same", "strides": [1, 1], "dilation_rate": [1, 1], "kernel_regularizer": null, "filters": 64, "bias_initializer": {"class_name": "Zeros", "config": {}}, "use_bias": false, "activity_regularizer": null, "kernel_size": [1, 1]}, "name": "conv2d_20"}, {"class_name": "Conv2D", "inbound_nodes": [[["activation_21", 0, 0, {}]]], "config": {"kernel_initializer": {"class_name": "VarianceScaling", "config": {"distribution": "uniform", "scale": 1.0, "seed": null, "mode": "fan_avg"}}, "name": "conv2d_22", "kernel_constraint": null, "bias_regularizer": null, "bias_constraint": null, "activation": "linear", "trainable": true, "data_format": "channels_last", "padding": "same", "strides": [1, 1], "dilation_rate": [1, 1], "kernel_regularizer": null, "filters": 64, "bias_initializer": {"class_name": "Zeros", "config": {}}, "use_bias": false, "activity_regularizer": null, "kernel_size": [5, 5]}, "name": "conv2d_22"}, {"class_name": "Conv2D", "inbound_nodes": [[["activation_24", 0, 0, {}]]], "config": {"kernel_initializer": {"class_name": "VarianceScaling", "config": {"distribution": "uniform", "scale": 1.0, "seed": null, "mode": "fan_avg"}}, "name": "conv2d_25", "kernel_constraint": null, "bias_regularizer": null, "bias_constraint": null, "activation": "linear", "trainable": true, "data_format": "channels_last", "padding": "same", "strides": [1, 1], "dilation_rate": [1, 1], "kernel_regularizer": null, "filters": 96, "bias_initializer": {"class_name": "Zeros", "config": {}}, "use_bias": false, "activity_regularizer": null, "kernel_size": [3, 3]}, "name": "conv2d_25"}, {"class_name": "Conv2D", "inbound_nodes": [[["average_pooling2d_3", 0, 0, {}]]], "config": {"kernel_initializer": {"class_name": "VarianceScaling", "config": {"distribution": "uniform", "scale": 1.0, "seed": null, "mode": "fan_avg"}}, "name": "conv2d_26", "kernel_constraint": null, "bias_regularizer": null, "bias_constraint": null, "activation": "linear", "trainable": true, "data_format": "channels_last", "padding": "same", "strides": [1, 1], "dilation_rate": [1, 1], "kernel_regularizer": null, "filters": 64, "bias_initializer": {"class_name": "Zeros", "config": {}}, "use_bias": false, "activity_regularizer": null, "kernel_size": [1, 1]}, "name": "conv2d_26"}, {"class_name": "BatchNormalization", "inbound_nodes": [[["conv2d_20", 0, 0, {}]]], "config": {"gamma_initializer": {"class_name": "Ones", "config": {}}, "moving_mean_initializer": {"class_name": "Zeros", "config": {}}, "name": "batch_normalization_20", "epsilon": 0.001, "trainable": true, "center": true, "moving_variance_initializer": {"class_name": "Ones", "config": {}}, "beta_initializer": {"class_name": "Zeros", "config": {}}, "scale": false, "gamma_regularizer": null, "gamma_constraint": null, "beta_constraint": null, "beta_regularizer": null, "momentum": 0.99, "axis": 3}, "name": "batch_normalization_20"}, {"class_name": "BatchNormalization", "inbound_nodes": [[["conv2d_22", 0, 0, {}]]], "config": {"gamma_initializer": {"class_name": "Ones", "config": {}}, "moving_mean_initializer": {"class_name": "Zeros", "config": {}}, "name": "batch_normalization_22", "epsilon": 0.001, "trainable": true, "center": true, "moving_variance_initializer": {"class_name": "Ones", "config": {}}, "beta_initializer": {"class_name": "Zeros", "config": {}}, "scale": false, "gamma_regularizer": null, "gamma_constraint": null, "beta_constraint": null, "beta_regularizer": null, "momentum": 0.99, "axis": 3}, "name": "batch_normalization_22"}, {"class_name": "BatchNormalization", "inbound_nodes": [[["conv2d_25", 0, 0, {}]]], "config": {"gamma_initializer": {"class_name": "Ones", "config": {}}, "moving_mean_initializer": {"class_name": "Zeros", "config": {}}, "name": "batch_normalization_25", "epsilon": 0.001, "trainable": true, "center": true, "moving_variance_initializer": {"class_name": "Ones", "config": {}}, "beta_initializer": {"class_name": "Zeros", "config": {}}, "scale": false, "gamma_regularizer": null, "gamma_constraint": null, "beta_constraint": null, "beta_regularizer": null, "momentum": 0.99, "axis": 3}, "name": "batch_normalization_25"}, {"class_name": "BatchNormalization", "inbound_nodes": [[["conv2d_26", 0, 0, {}]]], "config": {"gamma_initializer": {"class_name": "Ones", "config": {}}, "moving_mean_initializer": {"class_name": "Zeros", "config": {}}, "name": "batch_normalization_26", "epsilon": 0.001, "trainable": true, "center": true, "moving_variance_initializer": {"class_name": "Ones", "config": {}}, "beta_initializer": {"class_name": "Zeros", "config": {}}, "scale": false, "gamma_regularizer": null, "gamma_constraint": null, "beta_constraint": null, "beta_regularizer": null, "momentum": 0.99, "axis": 3}, "name": "batch_normalization_26"}, {"class_name": "Activation", "inbound_nodes": [[["batch_normalization_20", 0, 0, {}]]], "config": {"activation": "relu", "trainable": true, "name": "activation_20"}, "name": "activation_20"}, {"class_name": "Activation", "inbound_nodes": [[["batch_normalization_22", 0, 0, {}]]], "config": {"activation": "relu", "trainable": true, "name": "activation_22"}, "name": "activation_22"}, {"class_name": "Activation", "inbound_nodes": [[["batch_normalization_25", 0, 0, {}]]], "config": {"activation": "relu", "trainable": true, "name": "activation_25"}, "name": "activation_25"}, {"class_name": "Activation", "inbound_nodes": [[["batch_normalization_26", 0, 0, {}]]], "config": {"activation": "relu", "trainable": true, "name": "activation_26"}, "name": "activation_26"}, {"class_name": "Concatenate", "inbound_nodes": [[["activation_20", 0, 0, {}], ["activation_22", 0, 0, {}], ["activation_25", 0, 0, {}], ["activation_26", 0, 0, {}]]], "config": {"trainable": true, "name": "mixed2", "axis": 3}, "name": "mixed2"}, {"class_name": "Conv2D", "inbound_nodes": [[["mixed2", 0, 0, {}]]], "config": {"kernel_initializer": {"class_name": "VarianceScaling", "config": {"distribution": "uniform", "scale": 1.0, "seed": null, "mode": "fan_avg"}}, "name": "conv2d_28", "kernel_constraint": null, "bias_regularizer": null, "bias_constraint": null, "activation": "linear", "trainable": true, "data_format": "channels_last", "padding": "same", "strides": [1, 1], "dilation_rate": [1, 1], "kernel_regularizer": null, "filters": 64, "bias_initializer": {"class_name": "Zeros", "config": {}}, "use_bias": false, "activity_regularizer": null, "kernel_size": [1, 1]}, "name": "conv2d_28"}, {"class_name": "BatchNormalization", "inbound_nodes": [[["conv2d_28", 0, 0, {}]]], "config": {"gamma_initializer": {"class_name": "Ones", "config": {}}, "moving_mean_initializer": {"class_name": "Zeros", "config": {}}, "name": "batch_normalization_28", "epsilon": 0.001, "trainable": true, "center": true, "moving_variance_initializer": {"class_name": "Ones", "config": {}}, "beta_initializer": {"class_name": "Zeros", "config": {}}, "scale": false, "gamma_regularizer": null, "gamma_constraint": null, "beta_constraint": null, "beta_regularizer": null, "momentum": 0.99, "axis": 3}, "name": "batch_normalization_28"}, {"class_name": "Activation", "inbound_nodes": [[["batch_normalization_28", 0, 0, {}]]], "config": {"activation": "relu", "trainable": true, "name": "activation_28"}, "name": "activation_28"}, {"class_name": "Conv2D", "inbound_nodes": [[["activation_28", 0, 0, {}]]], "config": {"kernel_initializer": {"class_name": "VarianceScaling", "config": {"distribution": "uniform", "scale": 1.0, "seed": null, "mode": "fan_avg"}}, "name": "conv2d_29", "kernel_constraint": null, "bias_regularizer": null, "bias_constraint": null, "activation": "linear", "trainable": true, "data_format": "channels_last", "padding": "same", "strides": [1, 1], "dilation_rate": [1, 1], "kernel_regularizer": null, "filters": 96, "bias_initializer": {"class_name": "Zeros", "config": {}}, "use_bias": false, "activity_regularizer": null, "kernel_size": [3, 3]}, "name": "conv2d_29"}, {"class_name": "BatchNormalization", "inbound_nodes": [[["conv2d_29", 0, 0, {}]]], "config": {"gamma_initializer": {"class_name": "Ones", "config": {}}, "moving_mean_initializer": {"class_name": "Zeros", "config": {}}, "name": "batch_normalization_29", "epsilon": 0.001, "trainable": true, "center": true, "moving_variance_initializer": {"class_name": "Ones", "config": {}}, "beta_initializer": {"class_name": "Zeros", "config": {}}, "scale": false, "gamma_regularizer": null, "gamma_constraint": null, "beta_constraint": null, "beta_regularizer": null, "momentum": 0.99, "axis": 3}, "name": "batch_normalization_29"}, {"class_name": "Activation", "inbound_nodes": [[["batch_normalization_29", 0, 0, {}]]], "config": {"activation": "relu", "trainable": true, "name": "activation_29"}, "name": "activation_29"}, {"class_name": "Conv2D", "inbound_nodes": [[["mixed2", 0, 0, {}]]], "config": {"kernel_initializer": {"class_name": "VarianceScaling", "config": {"distribution": "uniform", "scale": 1.0, "seed": null, "mode": "fan_avg"}}, "name": "conv2d_27", "kernel_constraint": null, "bias_regularizer": null, "bias_constraint": null, "activation": "linear", "trainable": true, "data_format": "channels_last", "padding": "valid", "strides": [2, 2], "dilation_rate": [1, 1], "kernel_regularizer": null, "filters": 384, "bias_initializer": {"class_name": "Zeros", "config": {}}, "use_bias": false, "activity_regularizer": null, "kernel_size": [3, 3]}, "name": "conv2d_27"}, {"class_name": "Conv2D", "inbound_nodes": [[["activation_29", 0, 0, {}]]], "config": {"kernel_initializer": {"class_name": "VarianceScaling", "config": {"distribution": "uniform", "scale": 1.0, "seed": null, "mode": "fan_avg"}}, "name": "conv2d_30", "kernel_constraint": null, "bias_regularizer": null, "bias_constraint": null, "activation": "linear", "trainable": true, "data_format": "channels_last", "padding": "valid", "strides": [2, 2], "dilation_rate": [1, 1], "kernel_regularizer": null, "filters": 96, "bias_initializer": {"class_name": "Zeros", "config": {}}, "use_bias": false, "activity_regularizer": null, "kernel_size": [3, 3]}, "name": "conv2d_30"}, {"class_name": "BatchNormalization", "inbound_nodes": [[["conv2d_27", 0, 0, {}]]], "config": {"gamma_initializer": {"class_name": "Ones", "config": {}}, "moving_mean_initializer": {"class_name": "Zeros", "config": {}}, "name": "batch_normalization_27", "epsilon": 0.001, "trainable": true, "center": true, "moving_variance_initializer": {"class_name": "Ones", "config": {}}, "beta_initializer": {"class_name": "Zeros", "config": {}}, "scale": false, "gamma_regularizer": null, "gamma_constraint": null, "beta_constraint": null, "beta_regularizer": null, "momentum": 0.99, "axis": 3}, "name": "batch_normalization_27"}, {"class_name": "BatchNormalization", "inbound_nodes": [[["conv2d_30", 0, 0, {}]]], "config": {"gamma_initializer": {"class_name": "Ones", "config": {}}, "moving_mean_initializer": {"class_name": "Zeros", "config": {}}, "name": "batch_normalization_30", "epsilon": 0.001, "trainable": true, "center": true, "moving_variance_initializer": {"class_name": "Ones", "config": {}}, "beta_initializer": {"class_name": "Zeros", "config": {}}, "scale": false, "gamma_regularizer": null, "gamma_constraint": null, "beta_constraint": null, "beta_regularizer": null, "momentum": 0.99, "axis": 3}, "name": "batch_normalization_30"}, {"class_name": "Activation", "inbound_nodes": [[["batch_normalization_27", 0, 0, {}]]], "config": {"activation": "relu", "trainable": true, "name": "activation_27"}, "name": "activation_27"}, {"class_name": "Activation", "inbound_nodes": [[["batch_normalization_30", 0, 0, {}]]], "config": {"activation": "relu", "trainable": true, "name": "activation_30"}, "name": "activation_30"}, {"class_name": "MaxPooling2D", "inbound_nodes": [[["mixed2", 0, 0, {}]]], "config": {"name": "max_pooling2d_3", "trainable": true, "data_format": "channels_last", "pool_size": [3, 3], "padding": "valid", "strides": [2, 2]}, "name": "max_pooling2d_3"}, {"class_name": "Concatenate", "inbound_nodes": [[["activation_27", 0, 0, {}], ["activation_30", 0, 0, {}], ["max_pooling2d_3", 0, 0, {}]]], "config": {"trainable": true, "name": "mixed3", "axis": 3}, "name": "mixed3"}, {"class_name": "Conv2D", "inbound_nodes": [[["mixed3", 0, 0, {}]]], "config": {"kernel_initializer": {"class_name": "VarianceScaling", "config": {"distribution": "uniform", "scale": 1.0, "seed": null, "mode": "fan_avg"}}, "name": "conv2d_35", "kernel_constraint": null, "bias_regularizer": null, "bias_constraint": null, "activation": "linear", "trainable": true, "data_format": "channels_last", "padding": "same", "strides": [1, 1], "dilation_rate": [1, 1], "kernel_regularizer": null, "filters": 128, "bias_initializer": {"class_name": "Zeros", "config": {}}, "use_bias": false, "activity_regularizer": null, "kernel_size": [1, 1]}, "name": "conv2d_35"}, {"class_name": "BatchNormalization", "inbound_nodes": [[["conv2d_35", 0, 0, {}]]], "config": {"gamma_initializer": {"class_name": "Ones", "config": {}}, "moving_mean_initializer": {"class_name": "Zeros", "config": {}}, "name": "batch_normalization_35", "epsilon": 0.001, "trainable": true, "center": true, "moving_variance_initializer": {"class_name": "Ones", "config": {}}, "beta_initializer": {"class_name": "Zeros", "config": {}}, "scale": false, "gamma_regularizer": null, "gamma_constraint": null, "beta_constraint": null, "beta_regularizer": null, "momentum": 0.99, "axis": 3}, "name": "batch_normalization_35"}, {"class_name": "Activation", "inbound_nodes": [[["batch_normalization_35", 0, 0, {}]]], "config": {"activation": "relu", "trainable": true, "name": "activation_35"}, "name": "activation_35"}, {"class_name": "Conv2D", "inbound_nodes": [[["activation_35", 0, 0, {}]]], "config": {"kernel_initializer": {"class_name": "VarianceScaling", "config": {"distribution": "uniform", "scale": 1.0, "seed": null, "mode": "fan_avg"}}, "name": "conv2d_36", "kernel_constraint": null, "bias_regularizer": null, "bias_constraint": null, "activation": "linear", "trainable": true, "data_format": "channels_last", "padding": "same", "strides": [1, 1], "dilation_rate": [1, 1], "kernel_regularizer": null, "filters": 128, "bias_initializer": {"class_name": "Zeros", "config": {}}, "use_bias": false, "activity_regularizer": null, "kernel_size": [7, 1]}, "name": "conv2d_36"}, {"class_name": "BatchNormalization", "inbound_nodes": [[["conv2d_36", 0, 0, {}]]], "config": {"gamma_initializer": {"class_name": "Ones", "config": {}}, "moving_mean_initializer": {"class_name": "Zeros", "config": {}}, "name": "batch_normalization_36", "epsilon": 0.001, "trainable": true, "center": true, "moving_variance_initializer": {"class_name": "Ones", "config": {}}, "beta_initializer": {"class_name": "Zeros", "config": {}}, "scale": false, "gamma_regularizer": null, "gamma_constraint": null, "beta_constraint": null, "beta_regularizer": null, "momentum": 0.99, "axis": 3}, "name": "batch_normalization_36"}, {"class_name": "Activation", "inbound_nodes": [[["batch_normalization_36", 0, 0, {}]]], "config": {"activation": "relu", "trainable": true, "name": "activation_36"}, "name": "activation_36"}, {"class_name": "Conv2D", "inbound_nodes": [[["mixed3", 0, 0, {}]]], "config": {"kernel_initializer": {"class_name": "VarianceScaling", "config": {"distribution": "uniform", "scale": 1.0, "seed": null, "mode": "fan_avg"}}, "name": "conv2d_32", "kernel_constraint": null, "bias_regularizer": null, "bias_constraint": null, "activation": "linear", "trainable": true, "data_format": "channels_last", "padding": "same", "strides": [1, 1], "dilation_rate": [1, 1], "kernel_regularizer": null, "filters": 128, "bias_initializer": {"class_name": "Zeros", "config": {}}, "use_bias": false, "activity_regularizer": null, "kernel_size": [1, 1]}, "name": "conv2d_32"}, {"class_name": "Conv2D", "inbound_nodes": [[["activation_36", 0, 0, {}]]], "config": {"kernel_initializer": {"class_name": "VarianceScaling", "config": {"distribution": "uniform", "scale": 1.0, "seed": null, "mode": "fan_avg"}}, "name": "conv2d_37", "kernel_constraint": null, "bias_regularizer": null, "bias_constraint": null, "activation": "linear", "trainable": true, "data_format": "channels_last", "padding": "same", "strides": [1, 1], "dilation_rate": [1, 1], "kernel_regularizer": null, "filters": 128, "bias_initializer": {"class_name": "Zeros", "config": {}}, "use_bias": false, "activity_regularizer": null, "kernel_size": [1, 7]}, "name": "conv2d_37"}, {"class_name": "BatchNormalization", "inbound_nodes": [[["conv2d_32", 0, 0, {}]]], "config": {"gamma_initializer": {"class_name": "Ones", "config": {}}, "moving_mean_initializer": {"class_name": "Zeros", "config": {}}, "name": "batch_normalization_32", "epsilon": 0.001, "trainable": true, "center": true, "moving_variance_initializer": {"class_name": "Ones", "config": {}}, "beta_initializer": {"class_name": "Zeros", "config": {}}, "scale": false, "gamma_regularizer": null, "gamma_constraint": null, "beta_constraint": null, "beta_regularizer": null, "momentum": 0.99, "axis": 3}, "name": "batch_normalization_32"}, {"class_name": "BatchNormalization", "inbound_nodes": [[["conv2d_37", 0, 0, {}]]], "config": {"gamma_initializer": {"class_name": "Ones", "config": {}}, "moving_mean_initializer": {"class_name": "Zeros", "config": {}}, "name": "batch_normalization_37", "epsilon": 0.001, "trainable": true, "center": true, "moving_variance_initializer": {"class_name": "Ones", "config": {}}, "beta_initializer": {"class_name": "Zeros", "config": {}}, "scale": false, "gamma_regularizer": null, "gamma_constraint": null, "beta_constraint": null, "beta_regularizer": null, "momentum": 0.99, "axis": 3}, "name": "batch_normalization_37"}, {"class_name": "Activation", "inbound_nodes": [[["batch_normalization_32", 0, 0, {}]]], "config": {"activation": "relu", "trainable": true, "name": "activation_32"}, "name": "activation_32"}, {"class_name": "Activation", "inbound_nodes": [[["batch_normalization_37", 0, 0, {}]]], "config": {"activation": "relu", "trainable": true, "name": "activation_37"}, "name": "activation_37"}, {"class_name": "Conv2D", "inbound_nodes": [[["activation_32", 0, 0, {}]]], "config": {"kernel_initializer": {"class_name": "VarianceScaling", "config": {"distribution": "uniform", "scale": 1.0, "seed": null, "mode": "fan_avg"}}, "name": "conv2d_33", "kernel_constraint": null, "bias_regularizer": null, "bias_constraint": null, "activation": "linear", "trainable": true, "data_format": "channels_last", "padding": "same", "strides": [1, 1], "dilation_rate": [1, 1], "kernel_regularizer": null, "filters": 128, "bias_initializer": {"class_name": "Zeros", "config": {}}, "use_bias": false, "activity_regularizer": null, "kernel_size": [1, 7]}, "name": "conv2d_33"}, {"class_name": "Conv2D", "inbound_nodes": [[["activation_37", 0, 0, {}]]], "config": {"kernel_initializer": {"class_name": "VarianceScaling", "config": {"distribution": "uniform", "scale": 1.0, "seed": null, "mode": "fan_avg"}}, "name": "conv2d_38", "kernel_constraint": null, "bias_regularizer": null, "bias_constraint": null, "activation": "linear", "trainable": true, "data_format": "channels_last", "padding": "same", "strides": [1, 1], "dilation_rate": [1, 1], "kernel_regularizer": null, "filters": 128, "bias_initializer": {"class_name": "Zeros", "config": {}}, "use_bias": false, "activity_regularizer": null, "kernel_size": [7, 1]}, "name": "conv2d_38"}, {"class_name": "BatchNormalization", "inbound_nodes": [[["conv2d_33", 0, 0, {}]]], "config": {"gamma_initializer": {"class_name": "Ones", "config": {}}, "moving_mean_initializer": {"class_name": "Zeros", "config": {}}, "name": "batch_normalization_33", "epsilon": 0.001, "trainable": true, "center": true, "moving_variance_initializer": {"class_name": "Ones", "config": {}}, "beta_initializer": {"class_name": "Zeros", "config": {}}, "scale": false, "gamma_regularizer": null, "gamma_constraint": null, "beta_constraint": null, "beta_regularizer": null, "momentum": 0.99, "axis": 3}, "name": "batch_normalization_33"}, {"class_name": "BatchNormalization", "inbound_nodes": [[["conv2d_38", 0, 0, {}]]], "config": {"gamma_initializer": {"class_name": "Ones", "config": {}}, "moving_mean_initializer": {"class_name": "Zeros", "config": {}}, "name": "batch_normalization_38", "epsilon": 0.001, "trainable": true, "center": true, "moving_variance_initializer": {"class_name": "Ones", "config": {}}, "beta_initializer": {"class_name": "Zeros", "config": {}}, "scale": false, "gamma_regularizer": null, "gamma_constraint": null, "beta_constraint": null, "beta_regularizer": null, "momentum": 0.99, "axis": 3}, "name": "batch_normalization_38"}, {"class_name": "Activation", "inbound_nodes": [[["batch_normalization_33", 0, 0, {}]]], "config": {"activation": "relu", "trainable": true, "name": "activation_33"}, "name": "activation_33"}, {"class_name": "Activation", "inbound_nodes": [[["batch_normalization_38", 0, 0, {}]]], "config": {"activation": "relu", "trainable": true, "name": "activation_38"}, "name": "activation_38"}, {"class_name": "AveragePooling2D", "inbound_nodes": [[["mixed3", 0, 0, {}]]], "config": {"name": "average_pooling2d_4", "trainable": true, "data_format": "channels_last", "pool_size": [3, 3], "padding": "same", "strides": [1, 1]}, "name": "average_pooling2d_4"}, {"class_name": "Conv2D", "inbound_nodes": [[["mixed3", 0, 0, {}]]], "config": {"kernel_initializer": {"class_name": "VarianceScaling", "config": {"distribution": "uniform", "scale": 1.0, "seed": null, "mode": "fan_avg"}}, "name": "conv2d_31", "kernel_constraint": null, "bias_regularizer": null, "bias_constraint": null, "activation": "linear", "trainable": true, "data_format": "channels_last", "padding": "same", "strides": [1, 1], "dilation_rate": [1, 1], "kernel_regularizer": null, "filters": 192, "bias_initializer": {"class_name": "Zeros", "config": {}}, "use_bias": false, "activity_regularizer": null, "kernel_size": [1, 1]}, "name": "conv2d_31"}, {"class_name": "Conv2D", "inbound_nodes": [[["activation_33", 0, 0, {}]]], "config": {"kernel_initializer": {"class_name": "VarianceScaling", "config": {"distribution": "uniform", "scale": 1.0, "seed": null, "mode": "fan_avg"}}, "name": "conv2d_34", "kernel_constraint": null, "bias_regularizer": null, "bias_constraint": null, "activation": "linear", "trainable": true, "data_format": "channels_last", "padding": "same", "strides": [1, 1], "dilation_rate": [1, 1], "kernel_regularizer": null, "filters": 192, "bias_initializer": {"class_name": "Zeros", "config": {}}, "use_bias": false, "activity_regularizer": null, "kernel_size": [7, 1]}, "name": "conv2d_34"}, {"class_name": "Conv2D", "inbound_nodes": [[["activation_38", 0, 0, {}]]], "config": {"kernel_initializer": {"class_name": "VarianceScaling", "config": {"distribution": "uniform", "scale": 1.0, "seed": null, "mode": "fan_avg"}}, "name": "conv2d_39", "kernel_constraint": null, "bias_regularizer": null, "bias_constraint": null, "activation": "linear", "trainable": true, "data_format": "channels_last", "padding": "same", "strides": [1, 1], "dilation_rate": [1, 1], "kernel_regularizer": null, "filters": 192, "bias_initializer": {"class_name": "Zeros", "config": {}}, "use_bias": false, "activity_regularizer": null, "kernel_size": [1, 7]}, "name": "conv2d_39"}, {"class_name": "Conv2D", "inbound_nodes": [[["average_pooling2d_4", 0, 0, {}]]], "config": {"kernel_initializer": {"class_name": "VarianceScaling", "config": {"distribution": "uniform", "scale": 1.0, "seed": null, "mode": "fan_avg"}}, "name": "conv2d_40", "kernel_constraint": null, "bias_regularizer": null, "bias_constraint": null, "activation": "linear", "trainable": true, "data_format": "channels_last", "padding": "same", "strides": [1, 1], "dilation_rate": [1, 1], "kernel_regularizer": null, "filters": 192, "bias_initializer": {"class_name": "Zeros", "config": {}}, "use_bias": false, "activity_regularizer": null, "kernel_size": [1, 1]}, "name": "conv2d_40"}, {"class_name": "BatchNormalization", "inbound_nodes": [[["conv2d_31", 0, 0, {}]]], "config": {"gamma_initializer": {"class_name": "Ones", "config": {}}, "moving_mean_initializer": {"class_name": "Zeros", "config": {}}, "name": "batch_normalization_31", "epsilon": 0.001, "trainable": true, "center": true, "moving_variance_initializer": {"class_name": "Ones", "config": {}}, "beta_initializer": {"class_name": "Zeros", "config": {}}, "scale": false, "gamma_regularizer": null, "gamma_constraint": null, "beta_constraint": null, "beta_regularizer": null, "momentum": 0.99, "axis": 3}, "name": "batch_normalization_31"}, {"class_name": "BatchNormalization", "inbound_nodes": [[["conv2d_34", 0, 0, {}]]], "config": {"gamma_initializer": {"class_name": "Ones", "config": {}}, "moving_mean_initializer": {"class_name": "Zeros", "config": {}}, "name": "batch_normalization_34", "epsilon": 0.001, "trainable": true, "center": true, "moving_variance_initializer": {"class_name": "Ones", "config": {}}, "beta_initializer": {"class_name": "Zeros", "config": {}}, "scale": false, "gamma_regularizer": null, "gamma_constraint": null, "beta_constraint": null, "beta_regularizer": null, "momentum": 0.99, "axis": 3}, "name": "batch_normalization_34"}, {"class_name": "BatchNormalization", "inbound_nodes": [[["conv2d_39", 0, 0, {}]]], "config": {"gamma_initializer": {"class_name": "Ones", "config": {}}, "moving_mean_initializer": {"class_name": "Zeros", "config": {}}, "name": "batch_normalization_39", "epsilon": 0.001, "trainable": true, "center": true, "moving_variance_initializer": {"class_name": "Ones", "config": {}}, "beta_initializer": {"class_name": "Zeros", "config": {}}, "scale": false, "gamma_regularizer": null, "gamma_constraint": null, "beta_constraint": null, "beta_regularizer": null, "momentum": 0.99, "axis": 3}, "name": "batch_normalization_39"}, {"class_name": "BatchNormalization", "inbound_nodes": [[["conv2d_40", 0, 0, {}]]], "config": {"gamma_initializer": {"class_name": "Ones", "config": {}}, "moving_mean_initializer": {"class_name": "Zeros", "config": {}}, "name": "batch_normalization_40", "epsilon": 0.001, "trainable": true, "center": true, "moving_variance_initializer": {"class_name": "Ones", "config": {}}, "beta_initializer": {"class_name": "Zeros", "config": {}}, "scale": false, "gamma_regularizer": null, "gamma_constraint": null, "beta_constraint": null, "beta_regularizer": null, "momentum": 0.99, "axis": 3}, "name": "batch_normalization_40"}, {"class_name": "Activation", "inbound_nodes": [[["batch_normalization_31", 0, 0, {}]]], "config": {"activation": "relu", "trainable": true, "name": "activation_31"}, "name": "activation_31"}, {"class_name": "Activation", "inbound_nodes": [[["batch_normalization_34", 0, 0, {}]]], "config": {"activation": "relu", "trainable": true, "name": "activation_34"}, "name": "activation_34"}, {"class_name": "Activation", "inbound_nodes": [[["batch_normalization_39", 0, 0, {}]]], "config": {"activation": "relu", "trainable": true, "name": "activation_39"}, "name": "activation_39"}, {"class_name": "Activation", "inbound_nodes": [[["batch_normalization_40", 0, 0, {}]]], "config": {"activation": "relu", "trainable": true, "name": "activation_40"}, "name": "activation_40"}, {"class_name": "Concatenate", "inbound_nodes": [[["activation_31", 0, 0, {}], ["activation_34", 0, 0, {}], ["activation_39", 0, 0, {}], ["activation_40", 0, 0, {}]]], "config": {"trainable": true, "name": "mixed4", "axis": 3}, "name": "mixed4"}, {"class_name": "Conv2D", "inbound_nodes": [[["mixed4", 0, 0, {}]]], "config": {"kernel_initializer": {"class_name": "VarianceScaling", "config": {"distribution": "uniform", "scale": 1.0, "seed": null, "mode": "fan_avg"}}, "name": "conv2d_45", "kernel_constraint": null, "bias_regularizer": null, "bias_constraint": null, "activation": "linear", "trainable": true, "data_format": "channels_last", "padding": "same", "strides": [1, 1], "dilation_rate": [1, 1], "kernel_regularizer": null, "filters": 160, "bias_initializer": {"class_name": "Zeros", "config": {}}, "use_bias": false, "activity_regularizer": null, "kernel_size": [1, 1]}, "name": "conv2d_45"}, {"class_name": "BatchNormalization", "inbound_nodes": [[["conv2d_45", 0, 0, {}]]], "config": {"gamma_initializer": {"class_name": "Ones", "config": {}}, "moving_mean_initializer": {"class_name": "Zeros", "config": {}}, "name": "batch_normalization_45", "epsilon": 0.001, "trainable": true, "center": true, "moving_variance_initializer": {"class_name": "Ones", "config": {}}, "beta_initializer": {"class_name": "Zeros", "config": {}}, "scale": false, "gamma_regularizer": null, "gamma_constraint": null, "beta_constraint": null, "beta_regularizer": null, "momentum": 0.99, "axis": 3}, "name": "batch_normalization_45"}, {"class_name": "Activation", "inbound_nodes": [[["batch_normalization_45", 0, 0, {}]]], "config": {"activation": "relu", "trainable": true, "name": "activation_45"}, "name": "activation_45"}, {"class_name": "Conv2D", "inbound_nodes": [[["activation_45", 0, 0, {}]]], "config": {"kernel_initializer": {"class_name": "VarianceScaling", "config": {"distribution": "uniform", "scale": 1.0, "seed": null, "mode": "fan_avg"}}, "name": "conv2d_46", "kernel_constraint": null, "bias_regularizer": null, "bias_constraint": null, "activation": "linear", "trainable": true, "data_format": "channels_last", "padding": "same", "strides": [1, 1], "dilation_rate": [1, 1], "kernel_regularizer": null, "filters": 160, "bias_initializer": {"class_name": "Zeros", "config": {}}, "use_bias": false, "activity_regularizer": null, "kernel_size": [7, 1]}, "name": "conv2d_46"}, {"class_name": "BatchNormalization", "inbound_nodes": [[["conv2d_46", 0, 0, {}]]], "config": {"gamma_initializer": {"class_name": "Ones", "config": {}}, "moving_mean_initializer": {"class_name": "Zeros", "config": {}}, "name": "batch_normalization_46", "epsilon": 0.001, "trainable": true, "center": true, "moving_variance_initializer": {"class_name": "Ones", "config": {}}, "beta_initializer": {"class_name": "Zeros", "config": {}}, "scale": false, "gamma_regularizer": null, "gamma_constraint": null, "beta_constraint": null, "beta_regularizer": null, "momentum": 0.99, "axis": 3}, "name": "batch_normalization_46"}, {"class_name": "Activation", "inbound_nodes": [[["batch_normalization_46", 0, 0, {}]]], "config": {"activation": "relu", "trainable": true, "name": "activation_46"}, "name": "activation_46"}, {"class_name": "Conv2D", "inbound_nodes": [[["mixed4", 0, 0, {}]]], "config": {"kernel_initializer": {"class_name": "VarianceScaling", "config": {"distribution": "uniform", "scale": 1.0, "seed": null, "mode": "fan_avg"}}, "name": "conv2d_42", "kernel_constraint": null, "bias_regularizer": null, "bias_constraint": null, "activation": "linear", "trainable": true, "data_format": "channels_last", "padding": "same", "strides": [1, 1], "dilation_rate": [1, 1], "kernel_regularizer": null, "filters": 160, "bias_initializer": {"class_name": "Zeros", "config": {}}, "use_bias": false, "activity_regularizer": null, "kernel_size": [1, 1]}, "name": "conv2d_42"}, {"class_name": "Conv2D", "inbound_nodes": [[["activation_46", 0, 0, {}]]], "config": {"kernel_initializer": {"class_name": "VarianceScaling", "config": {"distribution": "uniform", "scale": 1.0, "seed": null, "mode": "fan_avg"}}, "name": "conv2d_47", "kernel_constraint": null, "bias_regularizer": null, "bias_constraint": null, "activation": "linear", "trainable": true, "data_format": "channels_last", "padding": "same", "strides": [1, 1], "dilation_rate": [1, 1], "kernel_regularizer": null, "filters": 160, "bias_initializer": {"class_name": "Zeros", "config": {}}, "use_bias": false, "activity_regularizer": null, "kernel_size": [1, 7]}, "name": "conv2d_47"}, {"class_name": "BatchNormalization", "inbound_nodes": [[["conv2d_42", 0, 0, {}]]], "config": {"gamma_initializer": {"class_name": "Ones", "config": {}}, "moving_mean_initializer": {"class_name": "Zeros", "config": {}}, "name": "batch_normalization_42", "epsilon": 0.001, "trainable": true, "center": true, "moving_variance_initializer": {"class_name": "Ones", "config": {}}, "beta_initializer": {"class_name": "Zeros", "config": {}}, "scale": false, "gamma_regularizer": null, "gamma_constraint": null, "beta_constraint": null, "beta_regularizer": null, "momentum": 0.99, "axis": 3}, "name": "batch_normalization_42"}, {"class_name": "BatchNormalization", "inbound_nodes": [[["conv2d_47", 0, 0, {}]]], "config": {"gamma_initializer": {"class_name": "Ones", "config": {}}, "moving_mean_initializer": {"class_name": "Zeros", "config": {}}, "name": "batch_normalization_47", "epsilon": 0.001, "trainable": true, "center": true, "moving_variance_initializer": {"class_name": "Ones", "config": {}}, "beta_initializer": {"class_name": "Zeros", "config": {}}, "scale": false, "gamma_regularizer": null, "gamma_constraint": null, "beta_constraint": null, "beta_regularizer": null, "momentum": 0.99, "axis": 3}, "name": "batch_normalization_47"}, {"class_name": "Activation", "inbound_nodes": [[["batch_normalization_42", 0, 0, {}]]], "config": {"activation": "relu", "trainable": true, "name": "activation_42"}, "name": "activation_42"}, {"class_name": "Activation", "inbound_nodes": [[["batch_normalization_47", 0, 0, {}]]], "config": {"activation": "relu", "trainable": true, "name": "activation_47"}, "name": "activation_47"}, {"class_name": "Conv2D", "inbound_nodes": [[["activation_42", 0, 0, {}]]], "config": {"kernel_initializer": {"class_name": "VarianceScaling", "config": {"distribution": "uniform", "scale": 1.0, "seed": null, "mode": "fan_avg"}}, "name": "conv2d_43", "kernel_constraint": null, "bias_regularizer": null, "bias_constraint": null, "activation": "linear", "trainable": true, "data_format": "channels_last", "padding": "same", "strides": [1, 1], "dilation_rate": [1, 1], "kernel_regularizer": null, "filters": 160, "bias_initializer": {"class_name": "Zeros", "config": {}}, "use_bias": false, "activity_regularizer": null, "kernel_size": [1, 7]}, "name": "conv2d_43"}, {"class_name": "Conv2D", "inbound_nodes": [[["activation_47", 0, 0, {}]]], "config": {"kernel_initializer": {"class_name": "VarianceScaling", "config": {"distribution": "uniform", "scale": 1.0, "seed": null, "mode": "fan_avg"}}, "name": "conv2d_48", "kernel_constraint": null, "bias_regularizer": null, "bias_constraint": null, "activation": "linear", "trainable": true, "data_format": "channels_last", "padding": "same", "strides": [1, 1], "dilation_rate": [1, 1], "kernel_regularizer": null, "filters": 160, "bias_initializer": {"class_name": "Zeros", "config": {}}, "use_bias": false, "activity_regularizer": null, "kernel_size": [7, 1]}, "name": "conv2d_48"}, {"class_name": "BatchNormalization", "inbound_nodes": [[["conv2d_43", 0, 0, {}]]], "config": {"gamma_initializer": {"class_name": "Ones", "config": {}}, "moving_mean_initializer": {"class_name": "Zeros", "config": {}}, "name": "batch_normalization_43", "epsilon": 0.001, "trainable": true, "center": true, "moving_variance_initializer": {"class_name": "Ones", "config": {}}, "beta_initializer": {"class_name": "Zeros", "config": {}}, "scale": false, "gamma_regularizer": null, "gamma_constraint": null, "beta_constraint": null, "beta_regularizer": null, "momentum": 0.99, "axis": 3}, "name": "batch_normalization_43"}, {"class_name": "BatchNormalization", "inbound_nodes": [[["conv2d_48", 0, 0, {}]]], "config": {"gamma_initializer": {"class_name": "Ones", "config": {}}, "moving_mean_initializer": {"class_name": "Zeros", "config": {}}, "name": "batch_normalization_48", "epsilon": 0.001, "trainable": true, "center": true, "moving_variance_initializer": {"class_name": "Ones", "config": {}}, "beta_initializer": {"class_name": "Zeros", "config": {}}, "scale": false, "gamma_regularizer": null, "gamma_constraint": null, "beta_constraint": null, "beta_regularizer": null, "momentum": 0.99, "axis": 3}, "name": "batch_normalization_48"}, {"class_name": "Activation", "inbound_nodes": [[["batch_normalization_43", 0, 0, {}]]], "config": {"activation": "relu", "trainable": true, "name": "activation_43"}, "name": "activation_43"}, {"class_name": "Activation", "inbound_nodes": [[["batch_normalization_48", 0, 0, {}]]], "config": {"activation": "relu", "trainable": true, "name": "activation_48"}, "name": "activation_48"}, {"class_name": "AveragePooling2D", "inbound_nodes": [[["mixed4", 0, 0, {}]]], "config": {"name": "average_pooling2d_5", "trainable": true, "data_format": "channels_last", "pool_size": [3, 3], "padding": "same", "strides": [1, 1]}, "name": "average_pooling2d_5"}, {"class_name": "Conv2D", "inbound_nodes": [[["mixed4", 0, 0, {}]]], "config": {"kernel_initializer": {"class_name": "VarianceScaling", "config": {"distribution": "uniform", "scale": 1.0, "seed": null, "mode": "fan_avg"}}, "name": "conv2d_41", "kernel_constraint": null, "bias_regularizer": null, "bias_constraint": null, "activation": "linear", "trainable": true, "data_format": "channels_last", "padding": "same", "strides": [1, 1], "dilation_rate": [1, 1], "kernel_regularizer": null, "filters": 192, "bias_initializer": {"class_name": "Zeros", "config": {}}, "use_bias": false, "activity_regularizer": null, "kernel_size": [1, 1]}, "name": "conv2d_41"}, {"class_name": "Conv2D", "inbound_nodes": [[["activation_43", 0, 0, {}]]], "config": {"kernel_initializer": {"class_name": "VarianceScaling", "config": {"distribution": "uniform", "scale": 1.0, "seed": null, "mode": "fan_avg"}}, "name": "conv2d_44", "kernel_constraint": null, "bias_regularizer": null, "bias_constraint": null, "activation": "linear", "trainable": true, "data_format": "channels_last", "padding": "same", "strides": [1, 1], "dilation_rate": [1, 1], "kernel_regularizer": null, "filters": 192, "bias_initializer": {"class_name": "Zeros", "config": {}}, "use_bias": false, "activity_regularizer": null, "kernel_size": [7, 1]}, "name": "conv2d_44"}, {"class_name": "Conv2D", "inbound_nodes": [[["activation_48", 0, 0, {}]]], "config": {"kernel_initializer": {"class_name": "VarianceScaling", "config": {"distribution": "uniform", "scale": 1.0, "seed": null, "mode": "fan_avg"}}, "name": "conv2d_49", "kernel_constraint": null, "bias_regularizer": null, "bias_constraint": null, "activation": "linear", "trainable": true, "data_format": "channels_last", "padding": "same", "strides": [1, 1], "dilation_rate": [1, 1], "kernel_regularizer": null, "filters": 192, "bias_initializer": {"class_name": "Zeros", "config": {}}, "use_bias": false, "activity_regularizer": null, "kernel_size": [1, 7]}, "name": "conv2d_49"}, {"class_name": "Conv2D", "inbound_nodes": [[["average_pooling2d_5", 0, 0, {}]]], "config": {"kernel_initializer": {"class_name": "VarianceScaling", "config": {"distribution": "uniform", "scale": 1.0, "seed": null, "mode": "fan_avg"}}, "name": "conv2d_50", "kernel_constraint": null, "bias_regularizer": null, "bias_constraint": null, "activation": "linear", "trainable": true, "data_format": "channels_last", "padding": "same", "strides": [1, 1], "dilation_rate": [1, 1], "kernel_regularizer": null, "filters": 192, "bias_initializer": {"class_name": "Zeros", "config": {}}, "use_bias": false, "activity_regularizer": null, "kernel_size": [1, 1]}, "name": "conv2d_50"}, {"class_name": "BatchNormalization", "inbound_nodes": [[["conv2d_41", 0, 0, {}]]], "config": {"gamma_initializer": {"class_name": "Ones", "config": {}}, "moving_mean_initializer": {"class_name": "Zeros", "config": {}}, "name": "batch_normalization_41", "epsilon": 0.001, "trainable": true, "center": true, "moving_variance_initializer": {"class_name": "Ones", "config": {}}, "beta_initializer": {"class_name": "Zeros", "config": {}}, "scale": false, "gamma_regularizer": null, "gamma_constraint": null, "beta_constraint": null, "beta_regularizer": null, "momentum": 0.99, "axis": 3}, "name": "batch_normalization_41"}, {"class_name": "BatchNormalization", "inbound_nodes": [[["conv2d_44", 0, 0, {}]]], "config": {"gamma_initializer": {"class_name": "Ones", "config": {}}, "moving_mean_initializer": {"class_name": "Zeros", "config": {}}, "name": "batch_normalization_44", "epsilon": 0.001, "trainable": true, "center": true, "moving_variance_initializer": {"class_name": "Ones", "config": {}}, "beta_initializer": {"class_name": "Zeros", "config": {}}, "scale": false, "gamma_regularizer": null, "gamma_constraint": null, "beta_constraint": null, "beta_regularizer": null, "momentum": 0.99, "axis": 3}, "name": "batch_normalization_44"}, {"class_name": "BatchNormalization", "inbound_nodes": [[["conv2d_49", 0, 0, {}]]], "config": {"gamma_initializer": {"class_name": "Ones", "config": {}}, "moving_mean_initializer": {"class_name": "Zeros", "config": {}}, "name": "batch_normalization_49", "epsilon": 0.001, "trainable": true, "center": true, "moving_variance_initializer": {"class_name": "Ones", "config": {}}, "beta_initializer": {"class_name": "Zeros", "config": {}}, "scale": false, "gamma_regularizer": null, "gamma_constraint": null, "beta_constraint": null, "beta_regularizer": null, "momentum": 0.99, "axis": 3}, "name": "batch_normalization_49"}, {"class_name": "BatchNormalization", "inbound_nodes": [[["conv2d_50", 0, 0, {}]]], "config": {"gamma_initializer": {"class_name": "Ones", "config": {}}, "moving_mean_initializer": {"class_name": "Zeros", "config": {}}, "name": "batch_normalization_50", "epsilon": 0.001, "trainable": true, "center": true, "moving_variance_initializer": {"class_name": "Ones", "config": {}}, "beta_initializer": {"class_name": "Zeros", "config": {}}, "scale": false, "gamma_regularizer": null, "gamma_constraint": null, "beta_constraint": null, "beta_regularizer": null, "momentum": 0.99, "axis": 3}, "name": "batch_normalization_50"}, {"class_name": "Activation", "inbound_nodes": [[["batch_normalization_41", 0, 0, {}]]], "config": {"activation": "relu", "trainable": true, "name": "activation_41"}, "name": "activation_41"}, {"class_name": "Activation", "inbound_nodes": [[["batch_normalization_44", 0, 0, {}]]], "config": {"activation": "relu", "trainable": true, "name": "activation_44"}, "name": "activation_44"}, {"class_name": "Activation", "inbound_nodes": [[["batch_normalization_49", 0, 0, {}]]], "config": {"activation": "relu", "trainable": true, "name": "activation_49"}, "name": "activation_49"}, {"class_name": "Activation", "inbound_nodes": [[["batch_normalization_50", 0, 0, {}]]], "config": {"activation": "relu", "trainable": true, "name": "activation_50"}, "name": "activation_50"}, {"class_name": "Concatenate", "inbound_nodes": [[["activation_41", 0, 0, {}], ["activation_44", 0, 0, {}], ["activation_49", 0, 0, {}], ["activation_50", 0, 0, {}]]], "config": {"trainable": true, "name": "mixed5", "axis": 3}, "name": "mixed5"}, {"class_name": "Conv2D", "inbound_nodes": [[["mixed5", 0, 0, {}]]], "config": {"kernel_initializer": {"class_name": "VarianceScaling", "config": {"distribution": "uniform", "scale": 1.0, "seed": null, "mode": "fan_avg"}}, "name": "conv2d_55", "kernel_constraint": null, "bias_regularizer": null, "bias_constraint": null, "activation": "linear", "trainable": true, "data_format": "channels_last", "padding": "same", "strides": [1, 1], "dilation_rate": [1, 1], "kernel_regularizer": null, "filters": 160, "bias_initializer": {"class_name": "Zeros", "config": {}}, "use_bias": false, "activity_regularizer": null, "kernel_size": [1, 1]}, "name": "conv2d_55"}, {"class_name": "BatchNormalization", "inbound_nodes": [[["conv2d_55", 0, 0, {}]]], "config": {"gamma_initializer": {"class_name": "Ones", "config": {}}, "moving_mean_initializer": {"class_name": "Zeros", "config": {}}, "name": "batch_normalization_55", "epsilon": 0.001, "trainable": true, "center": true, "moving_variance_initializer": {"class_name": "Ones", "config": {}}, "beta_initializer": {"class_name": "Zeros", "config": {}}, "scale": false, "gamma_regularizer": null, "gamma_constraint": null, "beta_constraint": null, "beta_regularizer": null, "momentum": 0.99, "axis": 3}, "name": "batch_normalization_55"}, {"class_name": "Activation", "inbound_nodes": [[["batch_normalization_55", 0, 0, {}]]], "config": {"activation": "relu", "trainable": true, "name": "activation_55"}, "name": "activation_55"}, {"class_name": "Conv2D", "inbound_nodes": [[["activation_55", 0, 0, {}]]], "config": {"kernel_initializer": {"class_name": "VarianceScaling", "config": {"distribution": "uniform", "scale": 1.0, "seed": null, "mode": "fan_avg"}}, "name": "conv2d_56", "kernel_constraint": null, "bias_regularizer": null, "bias_constraint": null, "activation": "linear", "trainable": true, "data_format": "channels_last", "padding": "same", "strides": [1, 1], "dilation_rate": [1, 1], "kernel_regularizer": null, "filters": 160, "bias_initializer": {"class_name": "Zeros", "config": {}}, "use_bias": false, "activity_regularizer": null, "kernel_size": [7, 1]}, "name": "conv2d_56"}, {"class_name": "BatchNormalization", "inbound_nodes": [[["conv2d_56", 0, 0, {}]]], "config": {"gamma_initializer": {"class_name": "Ones", "config": {}}, "moving_mean_initializer": {"class_name": "Zeros", "config": {}}, "name": "batch_normalization_56", "epsilon": 0.001, "trainable": true, "center": true, "moving_variance_initializer": {"class_name": "Ones", "config": {}}, "beta_initializer": {"class_name": "Zeros", "config": {}}, "scale": false, "gamma_regularizer": null, "gamma_constraint": null, "beta_constraint": null, "beta_regularizer": null, "momentum": 0.99, "axis": 3}, "name": "batch_normalization_56"}, {"class_name": "Activation", "inbound_nodes": [[["batch_normalization_56", 0, 0, {}]]], "config": {"activation": "relu", "trainable": true, "name": "activation_56"}, "name": "activation_56"}, {"class_name": "Conv2D", "inbound_nodes": [[["mixed5", 0, 0, {}]]], "config": {"kernel_initializer": {"class_name": "VarianceScaling", "config": {"distribution": "uniform", "scale": 1.0, "seed": null, "mode": "fan_avg"}}, "name": "conv2d_52", "kernel_constraint": null, "bias_regularizer": null, "bias_constraint": null, "activation": "linear", "trainable": true, "data_format": "channels_last", "padding": "same", "strides": [1, 1], "dilation_rate": [1, 1], "kernel_regularizer": null, "filters": 160, "bias_initializer": {"class_name": "Zeros", "config": {}}, "use_bias": false, "activity_regularizer": null, "kernel_size": [1, 1]}, "name": "conv2d_52"}, {"class_name": "Conv2D", "inbound_nodes": [[["activation_56", 0, 0, {}]]], "config": {"kernel_initializer": {"class_name": "VarianceScaling", "config": {"distribution": "uniform", "scale": 1.0, "seed": null, "mode": "fan_avg"}}, "name": "conv2d_57", "kernel_constraint": null, "bias_regularizer": null, "bias_constraint": null, "activation": "linear", "trainable": true, "data_format": "channels_last", "padding": "same", "strides": [1, 1], "dilation_rate": [1, 1], "kernel_regularizer": null, "filters": 160, "bias_initializer": {"class_name": "Zeros", "config": {}}, "use_bias": false, "activity_regularizer": null, "kernel_size": [1, 7]}, "name": "conv2d_57"}, {"class_name": "BatchNormalization", "inbound_nodes": [[["conv2d_52", 0, 0, {}]]], "config": {"gamma_initializer": {"class_name": "Ones", "config": {}}, "moving_mean_initializer": {"class_name": "Zeros", "config": {}}, "name": "batch_normalization_52", "epsilon": 0.001, "trainable": true, "center": true, "moving_variance_initializer": {"class_name": "Ones", "config": {}}, "beta_initializer": {"class_name": "Zeros", "config": {}}, "scale": false, "gamma_regularizer": null, "gamma_constraint": null, "beta_constraint": null, "beta_regularizer": null, "momentum": 0.99, "axis": 3}, "name": "batch_normalization_52"}, {"class_name": "BatchNormalization", "inbound_nodes": [[["conv2d_57", 0, 0, {}]]], "config": {"gamma_initializer": {"class_name": "Ones", "config": {}}, "moving_mean_initializer": {"class_name": "Zeros", "config": {}}, "name": "batch_normalization_57", "epsilon": 0.001, "trainable": true, "center": true, "moving_variance_initializer": {"class_name": "Ones", "config": {}}, "beta_initializer": {"class_name": "Zeros", "config": {}}, "scale": false, "gamma_regularizer": null, "gamma_constraint": null, "beta_constraint": null, "beta_regularizer": null, "momentum": 0.99, "axis": 3}, "name": "batch_normalization_57"}, {"class_name": "Activation", "inbound_nodes": [[["batch_normalization_52", 0, 0, {}]]], "config": {"activation": "relu", "trainable": true, "name": "activation_52"}, "name": "activation_52"}, {"class_name": "Activation", "inbound_nodes": [[["batch_normalization_57", 0, 0, {}]]], "config": {"activation": "relu", "trainable": true, "name": "activation_57"}, "name": "activation_57"}, {"class_name": "Conv2D", "inbound_nodes": [[["activation_52", 0, 0, {}]]], "config": {"kernel_initializer": {"class_name": "VarianceScaling", "config": {"distribution": "uniform", "scale": 1.0, "seed": null, "mode": "fan_avg"}}, "name": "conv2d_53", "kernel_constraint": null, "bias_regularizer": null, "bias_constraint": null, "activation": "linear", "trainable": true, "data_format": "channels_last", "padding": "same", "strides": [1, 1], "dilation_rate": [1, 1], "kernel_regularizer": null, "filters": 160, "bias_initializer": {"class_name": "Zeros", "config": {}}, "use_bias": false, "activity_regularizer": null, "kernel_size": [1, 7]}, "name": "conv2d_53"}, {"class_name": "Conv2D", "inbound_nodes": [[["activation_57", 0, 0, {}]]], "config": {"kernel_initializer": {"class_name": "VarianceScaling", "config": {"distribution": "uniform", "scale": 1.0, "seed": null, "mode": "fan_avg"}}, "name": "conv2d_58", "kernel_constraint": null, "bias_regularizer": null, "bias_constraint": null, "activation": "linear", "trainable": true, "data_format": "channels_last", "padding": "same", "strides": [1, 1], "dilation_rate": [1, 1], "kernel_regularizer": null, "filters": 160, "bias_initializer": {"class_name": "Zeros", "config": {}}, "use_bias": false, "activity_regularizer": null, "kernel_size": [7, 1]}, "name": "conv2d_58"}, {"class_name": "BatchNormalization", "inbound_nodes": [[["conv2d_53", 0, 0, {}]]], "config": {"gamma_initializer": {"class_name": "Ones", "config": {}}, "moving_mean_initializer": {"class_name": "Zeros", "config": {}}, "name": "batch_normalization_53", "epsilon": 0.001, "trainable": true, "center": true, "moving_variance_initializer": {"class_name": "Ones", "config": {}}, "beta_initializer": {"class_name": "Zeros", "config": {}}, "scale": false, "gamma_regularizer": null, "gamma_constraint": null, "beta_constraint": null, "beta_regularizer": null, "momentum": 0.99, "axis": 3}, "name": "batch_normalization_53"}, {"class_name": "BatchNormalization", "inbound_nodes": [[["conv2d_58", 0, 0, {}]]], "config": {"gamma_initializer": {"class_name": "Ones", "config": {}}, "moving_mean_initializer": {"class_name": "Zeros", "config": {}}, "name": "batch_normalization_58", "epsilon": 0.001, "trainable": true, "center": true, "moving_variance_initializer": {"class_name": "Ones", "config": {}}, "beta_initializer": {"class_name": "Zeros", "config": {}}, "scale": false, "gamma_regularizer": null, "gamma_constraint": null, "beta_constraint": null, "beta_regularizer": null, "momentum": 0.99, "axis": 3}, "name": "batch_normalization_58"}, {"class_name": "Activation", "inbound_nodes": [[["batch_normalization_53", 0, 0, {}]]], "config": {"activation": "relu", "trainable": true, "name": "activation_53"}, "name": "activation_53"}, {"class_name": "Activation", "inbound_nodes": [[["batch_normalization_58", 0, 0, {}]]], "config": {"activation": "relu", "trainable": true, "name": "activation_58"}, "name": "activation_58"}, {"class_name": "AveragePooling2D", "inbound_nodes": [[["mixed5", 0, 0, {}]]], "config": {"name": "average_pooling2d_6", "trainable": true, "data_format": "channels_last", "pool_size": [3, 3], "padding": "same", "strides": [1, 1]}, "name": "average_pooling2d_6"}, {"class_name": "Conv2D", "inbound_nodes": [[["mixed5", 0, 0, {}]]], "config": {"kernel_initializer": {"class_name": "VarianceScaling", "config": {"distribution": "uniform", "scale": 1.0, "seed": null, "mode": "fan_avg"}}, "name": "conv2d_51", "kernel_constraint": null, "bias_regularizer": null, "bias_constraint": null, "activation": "linear", "trainable": true, "data_format": "channels_last", "padding": "same", "strides": [1, 1], "dilation_rate": [1, 1], "kernel_regularizer": null, "filters": 192, "bias_initializer": {"class_name": "Zeros", "config": {}}, "use_bias": false, "activity_regularizer": null, "kernel_size": [1, 1]}, "name": "conv2d_51"}, {"class_name": "Conv2D", "inbound_nodes": [[["activation_53", 0, 0, {}]]], "config": {"kernel_initializer": {"class_name": "VarianceScaling", "config": {"distribution": "uniform", "scale": 1.0, "seed": null, "mode": "fan_avg"}}, "name": "conv2d_54", "kernel_constraint": null, "bias_regularizer": null, "bias_constraint": null, "activation": "linear", "trainable": true, "data_format": "channels_last", "padding": "same", "strides": [1, 1], "dilation_rate": [1, 1], "kernel_regularizer": null, "filters": 192, "bias_initializer": {"class_name": "Zeros", "config": {}}, "use_bias": false, "activity_regularizer": null, "kernel_size": [7, 1]}, "name": "conv2d_54"}, {"class_name": "Conv2D", "inbound_nodes": [[["activation_58", 0, 0, {}]]], "config": {"kernel_initializer": {"class_name": "VarianceScaling", "config": {"distribution": "uniform", "scale": 1.0, "seed": null, "mode": "fan_avg"}}, "name": "conv2d_59", "kernel_constraint": null, "bias_regularizer": null, "bias_constraint": null, "activation": "linear", "trainable": true, "data_format": "channels_last", "padding": "same", "strides": [1, 1], "dilation_rate": [1, 1], "kernel_regularizer": null, "filters": 192, "bias_initializer": {"class_name": "Zeros", "config": {}}, "use_bias": false, "activity_regularizer": null, "kernel_size": [1, 7]}, "name": "conv2d_59"}, {"class_name": "Conv2D", "inbound_nodes": [[["average_pooling2d_6", 0, 0, {}]]], "config": {"kernel_initializer": {"class_name": "VarianceScaling", "config": {"distribution": "uniform", "scale": 1.0, "seed": null, "mode": "fan_avg"}}, "name": "conv2d_60", "kernel_constraint": null, "bias_regularizer": null, "bias_constraint": null, "activation": "linear", "trainable": true, "data_format": "channels_last", "padding": "same", "strides": [1, 1], "dilation_rate": [1, 1], "kernel_regularizer": null, "filters": 192, "bias_initializer": {"class_name": "Zeros", "config": {}}, "use_bias": false, "activity_regularizer": null, "kernel_size": [1, 1]}, "name": "conv2d_60"}, {"class_name": "BatchNormalization", "inbound_nodes": [[["conv2d_51", 0, 0, {}]]], "config": {"gamma_initializer": {"class_name": "Ones", "config": {}}, "moving_mean_initializer": {"class_name": "Zeros", "config": {}}, "name": "batch_normalization_51", "epsilon": 0.001, "trainable": true, "center": true, "moving_variance_initializer": {"class_name": "Ones", "config": {}}, "beta_initializer": {"class_name": "Zeros", "config": {}}, "scale": false, "gamma_regularizer": null, "gamma_constraint": null, "beta_constraint": null, "beta_regularizer": null, "momentum": 0.99, "axis": 3}, "name": "batch_normalization_51"}, {"class_name": "BatchNormalization", "inbound_nodes": [[["conv2d_54", 0, 0, {}]]], "config": {"gamma_initializer": {"class_name": "Ones", "config": {}}, "moving_mean_initializer": {"class_name": "Zeros", "config": {}}, "name": "batch_normalization_54", "epsilon": 0.001, "trainable": true, "center": true, "moving_variance_initializer": {"class_name": "Ones", "config": {}}, "beta_initializer": {"class_name": "Zeros", "config": {}}, "scale": false, "gamma_regularizer": null, "gamma_constraint": null, "beta_constraint": null, "beta_regularizer": null, "momentum": 0.99, "axis": 3}, "name": "batch_normalization_54"}, {"class_name": "BatchNormalization", "inbound_nodes": [[["conv2d_59", 0, 0, {}]]], "config": {"gamma_initializer": {"class_name": "Ones", "config": {}}, "moving_mean_initializer": {"class_name": "Zeros", "config": {}}, "name": "batch_normalization_59", "epsilon": 0.001, "trainable": true, "center": true, "moving_variance_initializer": {"class_name": "Ones", "config": {}}, "beta_initializer": {"class_name": "Zeros", "config": {}}, "scale": false, "gamma_regularizer": null, "gamma_constraint": null, "beta_constraint": null, "beta_regularizer": null, "momentum": 0.99, "axis": 3}, "name": "batch_normalization_59"}, {"class_name": "BatchNormalization", "inbound_nodes": [[["conv2d_60", 0, 0, {}]]], "config": {"gamma_initializer": {"class_name": "Ones", "config": {}}, "moving_mean_initializer": {"class_name": "Zeros", "config": {}}, "name": "batch_normalization_60", "epsilon": 0.001, "trainable": true, "center": true, "moving_variance_initializer": {"class_name": "Ones", "config": {}}, "beta_initializer": {"class_name": "Zeros", "config": {}}, "scale": false, "gamma_regularizer": null, "gamma_constraint": null, "beta_constraint": null, "beta_regularizer": null, "momentum": 0.99, "axis": 3}, "name": "batch_normalization_60"}, {"class_name": "Activation", "inbound_nodes": [[["batch_normalization_51", 0, 0, {}]]], "config": {"activation": "relu", "trainable": true, "name": "activation_51"}, "name": "activation_51"}, {"class_name": "Activation", "inbound_nodes": [[["batch_normalization_54", 0, 0, {}]]], "config": {"activation": "relu", "trainable": true, "name": "activation_54"}, "name": "activation_54"}, {"class_name": "Activation", "inbound_nodes": [[["batch_normalization_59", 0, 0, {}]]], "config": {"activation": "relu", "trainable": true, "name": "activation_59"}, "name": "activation_59"}, {"class_name": "Activation", "inbound_nodes": [[["batch_normalization_60", 0, 0, {}]]], "config": {"activation": "relu", "trainable": true, "name": "activation_60"}, "name": "activation_60"}, {"class_name": "Concatenate", "inbound_nodes": [[["activation_51", 0, 0, {}], ["activation_54", 0, 0, {}], ["activation_59", 0, 0, {}], ["activation_60", 0, 0, {}]]], "config": {"trainable": true, "name": "mixed6", "axis": 3}, "name": "mixed6"}, {"class_name": "Conv2D", "inbound_nodes": [[["mixed6", 0, 0, {}]]], "config": {"kernel_initializer": {"class_name": "VarianceScaling", "config": {"distribution": "uniform", "scale": 1.0, "seed": null, "mode": "fan_avg"}}, "name": "conv2d_65", "kernel_constraint": null, "bias_regularizer": null, "bias_constraint": null, "activation": "linear", "trainable": true, "data_format": "channels_last", "padding": "same", "strides": [1, 1], "dilation_rate": [1, 1], "kernel_regularizer": null, "filters": 192, "bias_initializer": {"class_name": "Zeros", "config": {}}, "use_bias": false, "activity_regularizer": null, "kernel_size": [1, 1]}, "name": "conv2d_65"}, {"class_name": "BatchNormalization", "inbound_nodes": [[["conv2d_65", 0, 0, {}]]], "config": {"gamma_initializer": {"class_name": "Ones", "config": {}}, "moving_mean_initializer": {"class_name": "Zeros", "config": {}}, "name": "batch_normalization_65", "epsilon": 0.001, "trainable": true, "center": true, "moving_variance_initializer": {"class_name": "Ones", "config": {}}, "beta_initializer": {"class_name": "Zeros", "config": {}}, "scale": false, "gamma_regularizer": null, "gamma_constraint": null, "beta_constraint": null, "beta_regularizer": null, "momentum": 0.99, "axis": 3}, "name": "batch_normalization_65"}, {"class_name": "Activation", "inbound_nodes": [[["batch_normalization_65", 0, 0, {}]]], "config": {"activation": "relu", "trainable": true, "name": "activation_65"}, "name": "activation_65"}, {"class_name": "Conv2D", "inbound_nodes": [[["activation_65", 0, 0, {}]]], "config": {"kernel_initializer": {"class_name": "VarianceScaling", "config": {"distribution": "uniform", "scale": 1.0, "seed": null, "mode": "fan_avg"}}, "name": "conv2d_66", "kernel_constraint": null, "bias_regularizer": null, "bias_constraint": null, "activation": "linear", "trainable": true, "data_format": "channels_last", "padding": "same", "strides": [1, 1], "dilation_rate": [1, 1], "kernel_regularizer": null, "filters": 192, "bias_initializer": {"class_name": "Zeros", "config": {}}, "use_bias": false, "activity_regularizer": null, "kernel_size": [7, 1]}, "name": "conv2d_66"}, {"class_name": "BatchNormalization", "inbound_nodes": [[["conv2d_66", 0, 0, {}]]], "config": {"gamma_initializer": {"class_name": "Ones", "config": {}}, "moving_mean_initializer": {"class_name": "Zeros", "config": {}}, "name": "batch_normalization_66", "epsilon": 0.001, "trainable": true, "center": true, "moving_variance_initializer": {"class_name": "Ones", "config": {}}, "beta_initializer": {"class_name": "Zeros", "config": {}}, "scale": false, "gamma_regularizer": null, "gamma_constraint": null, "beta_constraint": null, "beta_regularizer": null, "momentum": 0.99, "axis": 3}, "name": "batch_normalization_66"}, {"class_name": "Activation", "inbound_nodes": [[["batch_normalization_66", 0, 0, {}]]], "config": {"activation": "relu", "trainable": true, "name": "activation_66"}, "name": "activation_66"}, {"class_name": "Conv2D", "inbound_nodes": [[["mixed6", 0, 0, {}]]], "config": {"kernel_initializer": {"class_name": "VarianceScaling", "config": {"distribution": "uniform", "scale": 1.0, "seed": null, "mode": "fan_avg"}}, "name": "conv2d_62", "kernel_constraint": null, "bias_regularizer": null, "bias_constraint": null, "activation": "linear", "trainable": true, "data_format": "channels_last", "padding": "same", "strides": [1, 1], "dilation_rate": [1, 1], "kernel_regularizer": null, "filters": 192, "bias_initializer": {"class_name": "Zeros", "config": {}}, "use_bias": false, "activity_regularizer": null, "kernel_size": [1, 1]}, "name": "conv2d_62"}, {"class_name": "Conv2D", "inbound_nodes": [[["activation_66", 0, 0, {}]]], "config": {"kernel_initializer": {"class_name": "VarianceScaling", "config": {"distribution": "uniform", "scale": 1.0, "seed": null, "mode": "fan_avg"}}, "name": "conv2d_67", "kernel_constraint": null, "bias_regularizer": null, "bias_constraint": null, "activation": "linear", "trainable": true, "data_format": "channels_last", "padding": "same", "strides": [1, 1], "dilation_rate": [1, 1], "kernel_regularizer": null, "filters": 192, "bias_initializer": {"class_name": "Zeros", "config": {}}, "use_bias": false, "activity_regularizer": null, "kernel_size": [1, 7]}, "name": "conv2d_67"}, {"class_name": "BatchNormalization", "inbound_nodes": [[["conv2d_62", 0, 0, {}]]], "config": {"gamma_initializer": {"class_name": "Ones", "config": {}}, "moving_mean_initializer": {"class_name": "Zeros", "config": {}}, "name": "batch_normalization_62", "epsilon": 0.001, "trainable": true, "center": true, "moving_variance_initializer": {"class_name": "Ones", "config": {}}, "beta_initializer": {"class_name": "Zeros", "config": {}}, "scale": false, "gamma_regularizer": null, "gamma_constraint": null, "beta_constraint": null, "beta_regularizer": null, "momentum": 0.99, "axis": 3}, "name": "batch_normalization_62"}, {"class_name": "BatchNormalization", "inbound_nodes": [[["conv2d_67", 0, 0, {}]]], "config": {"gamma_initializer": {"class_name": "Ones", "config": {}}, "moving_mean_initializer": {"class_name": "Zeros", "config": {}}, "name": "batch_normalization_67", "epsilon": 0.001, "trainable": true, "center": true, "moving_variance_initializer": {"class_name": "Ones", "config": {}}, "beta_initializer": {"class_name": "Zeros", "config": {}}, "scale": false, "gamma_regularizer": null, "gamma_constraint": null, "beta_constraint": null, "beta_regularizer": null, "momentum": 0.99, "axis": 3}, "name": "batch_normalization_67"}, {"class_name": "Activation", "inbound_nodes": [[["batch_normalization_62", 0, 0, {}]]], "config": {"activation": "relu", "trainable": true, "name": "activation_62"}, "name": "activation_62"}, {"class_name": "Activation", "inbound_nodes": [[["batch_normalization_67", 0, 0, {}]]], "config": {"activation": "relu", "trainable": true, "name": "activation_67"}, "name": "activation_67"}, {"class_name": "Conv2D", "inbound_nodes": [[["activation_62", 0, 0, {}]]], "config": {"kernel_initializer": {"class_name": "VarianceScaling", "config": {"distribution": "uniform", "scale": 1.0, "seed": null, "mode": "fan_avg"}}, "name": "conv2d_63", "kernel_constraint": null, "bias_regularizer": null, "bias_constraint": null, "activation": "linear", "trainable": true, "data_format": "channels_last", "padding": "same", "strides": [1, 1], "dilation_rate": [1, 1], "kernel_regularizer": null, "filters": 192, "bias_initializer": {"class_name": "Zeros", "config": {}}, "use_bias": false, "activity_regularizer": null, "kernel_size": [1, 7]}, "name": "conv2d_63"}, {"class_name": "Conv2D", "inbound_nodes": [[["activation_67", 0, 0, {}]]], "config": {"kernel_initializer": {"class_name": "VarianceScaling", "config": {"distribution": "uniform", "scale": 1.0, "seed": null, "mode": "fan_avg"}}, "name": "conv2d_68", "kernel_constraint": null, "bias_regularizer": null, "bias_constraint": null, "activation": "linear", "trainable": true, "data_format": "channels_last", "padding": "same", "strides": [1, 1], "dilation_rate": [1, 1], "kernel_regularizer": null, "filters": 192, "bias_initializer": {"class_name": "Zeros", "config": {}}, "use_bias": false, "activity_regularizer": null, "kernel_size": [7, 1]}, "name": "conv2d_68"}, {"class_name": "BatchNormalization", "inbound_nodes": [[["conv2d_63", 0, 0, {}]]], "config": {"gamma_initializer": {"class_name": "Ones", "config": {}}, "moving_mean_initializer": {"class_name": "Zeros", "config": {}}, "name": "batch_normalization_63", "epsilon": 0.001, "trainable": true, "center": true, "moving_variance_initializer": {"class_name": "Ones", "config": {}}, "beta_initializer": {"class_name": "Zeros", "config": {}}, "scale": false, "gamma_regularizer": null, "gamma_constraint": null, "beta_constraint": null, "beta_regularizer": null, "momentum": 0.99, "axis": 3}, "name": "batch_normalization_63"}, {"class_name": "BatchNormalization", "inbound_nodes": [[["conv2d_68", 0, 0, {}]]], "config": {"gamma_initializer": {"class_name": "Ones", "config": {}}, "moving_mean_initializer": {"class_name": "Zeros", "config": {}}, "name": "batch_normalization_68", "epsilon": 0.001, "trainable": true, "center": true, "moving_variance_initializer": {"class_name": "Ones", "config": {}}, "beta_initializer": {"class_name": "Zeros", "config": {}}, "scale": false, "gamma_regularizer": null, "gamma_constraint": null, "beta_constraint": null, "beta_regularizer": null, "momentum": 0.99, "axis": 3}, "name": "batch_normalization_68"}, {"class_name": "Activation", "inbound_nodes": [[["batch_normalization_63", 0, 0, {}]]], "config": {"activation": "relu", "trainable": true, "name": "activation_63"}, "name": "activation_63"}, {"class_name": "Activation", "inbound_nodes": [[["batch_normalization_68", 0, 0, {}]]], "config": {"activation": "relu", "trainable": true, "name": "activation_68"}, "name": "activation_68"}, {"class_name": "AveragePooling2D", "inbound_nodes": [[["mixed6", 0, 0, {}]]], "config": {"name": "average_pooling2d_7", "trainable": true, "data_format": "channels_last", "pool_size": [3, 3], "padding": "same", "strides": [1, 1]}, "name": "average_pooling2d_7"}, {"class_name": "Conv2D", "inbound_nodes": [[["mixed6", 0, 0, {}]]], "config": {"kernel_initializer": {"class_name": "VarianceScaling", "config": {"distribution": "uniform", "scale": 1.0, "seed": null, "mode": "fan_avg"}}, "name": "conv2d_61", "kernel_constraint": null, "bias_regularizer": null, "bias_constraint": null, "activation": "linear", "trainable": true, "data_format": "channels_last", "padding": "same", "strides": [1, 1], "dilation_rate": [1, 1], "kernel_regularizer": null, "filters": 192, "bias_initializer": {"class_name": "Zeros", "config": {}}, "use_bias": false, "activity_regularizer": null, "kernel_size": [1, 1]}, "name": "conv2d_61"}, {"class_name": "Conv2D", "inbound_nodes": [[["activation_63", 0, 0, {}]]], "config": {"kernel_initializer": {"class_name": "VarianceScaling", "config": {"distribution": "uniform", "scale": 1.0, "seed": null, "mode": "fan_avg"}}, "name": "conv2d_64", "kernel_constraint": null, "bias_regularizer": null, "bias_constraint": null, "activation": "linear", "trainable": true, "data_format": "channels_last", "padding": "same", "strides": [1, 1], "dilation_rate": [1, 1], "kernel_regularizer": null, "filters": 192, "bias_initializer": {"class_name": "Zeros", "config": {}}, "use_bias": false, "activity_regularizer": null, "kernel_size": [7, 1]}, "name": "conv2d_64"}, {"class_name": "Conv2D", "inbound_nodes": [[["activation_68", 0, 0, {}]]], "config": {"kernel_initializer": {"class_name": "VarianceScaling", "config": {"distribution": "uniform", "scale": 1.0, "seed": null, "mode": "fan_avg"}}, "name": "conv2d_69", "kernel_constraint": null, "bias_regularizer": null, "bias_constraint": null, "activation": "linear", "trainable": true, "data_format": "channels_last", "padding": "same", "strides": [1, 1], "dilation_rate": [1, 1], "kernel_regularizer": null, "filters": 192, "bias_initializer": {"class_name": "Zeros", "config": {}}, "use_bias": false, "activity_regularizer": null, "kernel_size": [1, 7]}, "name": "conv2d_69"}, {"class_name": "Conv2D", "inbound_nodes": [[["average_pooling2d_7", 0, 0, {}]]], "config": {"kernel_initializer": {"class_name": "VarianceScaling", "config": {"distribution": "uniform", "scale": 1.0, "seed": null, "mode": "fan_avg"}}, "name": "conv2d_70", "kernel_constraint": null, "bias_regularizer": null, "bias_constraint": null, "activation": "linear", "trainable": true, "data_format": "channels_last", "padding": "same", "strides": [1, 1], "dilation_rate": [1, 1], "kernel_regularizer": null, "filters": 192, "bias_initializer": {"class_name": "Zeros", "config": {}}, "use_bias": false, "activity_regularizer": null, "kernel_size": [1, 1]}, "name": "conv2d_70"}, {"class_name": "BatchNormalization", "inbound_nodes": [[["conv2d_61", 0, 0, {}]]], "config": {"gamma_initializer": {"class_name": "Ones", "config": {}}, "moving_mean_initializer": {"class_name": "Zeros", "config": {}}, "name": "batch_normalization_61", "epsilon": 0.001, "trainable": true, "center": true, "moving_variance_initializer": {"class_name": "Ones", "config": {}}, "beta_initializer": {"class_name": "Zeros", "config": {}}, "scale": false, "gamma_regularizer": null, "gamma_constraint": null, "beta_constraint": null, "beta_regularizer": null, "momentum": 0.99, "axis": 3}, "name": "batch_normalization_61"}, {"class_name": "BatchNormalization", "inbound_nodes": [[["conv2d_64", 0, 0, {}]]], "config": {"gamma_initializer": {"class_name": "Ones", "config": {}}, "moving_mean_initializer": {"class_name": "Zeros", "config": {}}, "name": "batch_normalization_64", "epsilon": 0.001, "trainable": true, "center": true, "moving_variance_initializer": {"class_name": "Ones", "config": {}}, "beta_initializer": {"class_name": "Zeros", "config": {}}, "scale": false, "gamma_regularizer": null, "gamma_constraint": null, "beta_constraint": null, "beta_regularizer": null, "momentum": 0.99, "axis": 3}, "name": "batch_normalization_64"}, {"class_name": "BatchNormalization", "inbound_nodes": [[["conv2d_69", 0, 0, {}]]], "config": {"gamma_initializer": {"class_name": "Ones", "config": {}}, "moving_mean_initializer": {"class_name": "Zeros", "config": {}}, "name": "batch_normalization_69", "epsilon": 0.001, "trainable": true, "center": true, "moving_variance_initializer": {"class_name": "Ones", "config": {}}, "beta_initializer": {"class_name": "Zeros", "config": {}}, "scale": false, "gamma_regularizer": null, "gamma_constraint": null, "beta_constraint": null, "beta_regularizer": null, "momentum": 0.99, "axis": 3}, "name": "batch_normalization_69"}, {"class_name": "BatchNormalization", "inbound_nodes": [[["conv2d_70", 0, 0, {}]]], "config": {"gamma_initializer": {"class_name": "Ones", "config": {}}, "moving_mean_initializer": {"class_name": "Zeros", "config": {}}, "name": "batch_normalization_70", "epsilon": 0.001, "trainable": true, "center": true, "moving_variance_initializer": {"class_name": "Ones", "config": {}}, "beta_initializer": {"class_name": "Zeros", "config": {}}, "scale": false, "gamma_regularizer": null, "gamma_constraint": null, "beta_constraint": null, "beta_regularizer": null, "momentum": 0.99, "axis": 3}, "name": "batch_normalization_70"}, {"class_name": "Activation", "inbound_nodes": [[["batch_normalization_61", 0, 0, {}]]], "config": {"activation": "relu", "trainable": true, "name": "activation_61"}, "name": "activation_61"}, {"class_name": "Activation", "inbound_nodes": [[["batch_normalization_64", 0, 0, {}]]], "config": {"activation": "relu", "trainable": true, "name": "activation_64"}, "name": "activation_64"}, {"class_name": "Activation", "inbound_nodes": [[["batch_normalization_69", 0, 0, {}]]], "config": {"activation": "relu", "trainable": true, "name": "activation_69"}, "name": "activation_69"}, {"class_name": "Activation", "inbound_nodes": [[["batch_normalization_70", 0, 0, {}]]], "config": {"activation": "relu", "trainable": true, "name": "activation_70"}, "name": "activation_70"}, {"class_name": "Concatenate", "inbound_nodes": [[["activation_61", 0, 0, {}], ["activation_64", 0, 0, {}], ["activation_69", 0, 0, {}], ["activation_70", 0, 0, {}]]], "config": {"trainable": true, "name": "mixed7", "axis": 3}, "name": "mixed7"}, {"class_name": "Conv2D", "inbound_nodes": [[["mixed7", 0, 0, {}]]], "config": {"kernel_initializer": {"class_name": "VarianceScaling", "config": {"distribution": "uniform", "scale": 1.0, "seed": null, "mode": "fan_avg"}}, "name": "conv2d_73", "kernel_constraint": null, "bias_regularizer": null, "bias_constraint": null, "activation": "linear", "trainable": true, "data_format": "channels_last", "padding": "same", "strides": [1, 1], "dilation_rate": [1, 1], "kernel_regularizer": null, "filters": 192, "bias_initializer": {"class_name": "Zeros", "config": {}}, "use_bias": false, "activity_regularizer": null, "kernel_size": [1, 1]}, "name": "conv2d_73"}, {"class_name": "BatchNormalization", "inbound_nodes": [[["conv2d_73", 0, 0, {}]]], "config": {"gamma_initializer": {"class_name": "Ones", "config": {}}, "moving_mean_initializer": {"class_name": "Zeros", "config": {}}, "name": "batch_normalization_73", "epsilon": 0.001, "trainable": true, "center": true, "moving_variance_initializer": {"class_name": "Ones", "config": {}}, "beta_initializer": {"class_name": "Zeros", "config": {}}, "scale": false, "gamma_regularizer": null, "gamma_constraint": null, "beta_constraint": null, "beta_regularizer": null, "momentum": 0.99, "axis": 3}, "name": "batch_normalization_73"}, {"class_name": "Activation", "inbound_nodes": [[["batch_normalization_73", 0, 0, {}]]], "config": {"activation": "relu", "trainable": true, "name": "activation_73"}, "name": "activation_73"}, {"class_name": "Conv2D", "inbound_nodes": [[["activation_73", 0, 0, {}]]], "config": {"kernel_initializer": {"class_name": "VarianceScaling", "config": {"distribution": "uniform", "scale": 1.0, "seed": null, "mode": "fan_avg"}}, "name": "conv2d_74", "kernel_constraint": null, "bias_regularizer": null, "bias_constraint": null, "activation": "linear", "trainable": true, "data_format": "channels_last", "padding": "same", "strides": [1, 1], "dilation_rate": [1, 1], "kernel_regularizer": null, "filters": 192, "bias_initializer": {"class_name": "Zeros", "config": {}}, "use_bias": false, "activity_regularizer": null, "kernel_size": [1, 7]}, "name": "conv2d_74"}, {"class_name": "BatchNormalization", "inbound_nodes": [[["conv2d_74", 0, 0, {}]]], "config": {"gamma_initializer": {"class_name": "Ones", "config": {}}, "moving_mean_initializer": {"class_name": "Zeros", "config": {}}, "name": "batch_normalization_74", "epsilon": 0.001, "trainable": true, "center": true, "moving_variance_initializer": {"class_name": "Ones", "config": {}}, "beta_initializer": {"class_name": "Zeros", "config": {}}, "scale": false, "gamma_regularizer": null, "gamma_constraint": null, "beta_constraint": null, "beta_regularizer": null, "momentum": 0.99, "axis": 3}, "name": "batch_normalization_74"}, {"class_name": "Activation", "inbound_nodes": [[["batch_normalization_74", 0, 0, {}]]], "config": {"activation": "relu", "trainable": true, "name": "activation_74"}, "name": "activation_74"}, {"class_name": "Conv2D", "inbound_nodes": [[["mixed7", 0, 0, {}]]], "config": {"kernel_initializer": {"class_name": "VarianceScaling", "config": {"distribution": "uniform", "scale": 1.0, "seed": null, "mode": "fan_avg"}}, "name": "conv2d_71", "kernel_constraint": null, "bias_regularizer": null, "bias_constraint": null, "activation": "linear", "trainable": true, "data_format": "channels_last", "padding": "same", "strides": [1, 1], "dilation_rate": [1, 1], "kernel_regularizer": null, "filters": 192, "bias_initializer": {"class_name": "Zeros", "config": {}}, "use_bias": false, "activity_regularizer": null, "kernel_size": [1, 1]}, "name": "conv2d_71"}, {"class_name": "Conv2D", "inbound_nodes": [[["activation_74", 0, 0, {}]]], "config": {"kernel_initializer": {"class_name": "VarianceScaling", "config": {"distribution": "uniform", "scale": 1.0, "seed": null, "mode": "fan_avg"}}, "name": "conv2d_75", "kernel_constraint": null, "bias_regularizer": null, "bias_constraint": null, "activation": "linear", "trainable": true, "data_format": "channels_last", "padding": "same", "strides": [1, 1], "dilation_rate": [1, 1], "kernel_regularizer": null, "filters": 192, "bias_initializer": {"class_name": "Zeros", "config": {}}, "use_bias": false, "activity_regularizer": null, "kernel_size": [7, 1]}, "name": "conv2d_75"}, {"class_name": "BatchNormalization", "inbound_nodes": [[["conv2d_71", 0, 0, {}]]], "config": {"gamma_initializer": {"class_name": "Ones", "config": {}}, "moving_mean_initializer": {"class_name": "Zeros", "config": {}}, "name": "batch_normalization_71", "epsilon": 0.001, "trainable": true, "center": true, "moving_variance_initializer": {"class_name": "Ones", "config": {}}, "beta_initializer": {"class_name": "Zeros", "config": {}}, "scale": false, "gamma_regularizer": null, "gamma_constraint": null, "beta_constraint": null, "beta_regularizer": null, "momentum": 0.99, "axis": 3}, "name": "batch_normalization_71"}, {"class_name": "BatchNormalization", "inbound_nodes": [[["conv2d_75", 0, 0, {}]]], "config": {"gamma_initializer": {"class_name": "Ones", "config": {}}, "moving_mean_initializer": {"class_name": "Zeros", "config": {}}, "name": "batch_normalization_75", "epsilon": 0.001, "trainable": true, "center": true, "moving_variance_initializer": {"class_name": "Ones", "config": {}}, "beta_initializer": {"class_name": "Zeros", "config": {}}, "scale": false, "gamma_regularizer": null, "gamma_constraint": null, "beta_constraint": null, "beta_regularizer": null, "momentum": 0.99, "axis": 3}, "name": "batch_normalization_75"}, {"class_name": "Activation", "inbound_nodes": [[["batch_normalization_71", 0, 0, {}]]], "config": {"activation": "relu", "trainable": true, "name": "activation_71"}, "name": "activation_71"}, {"class_name": "Activation", "inbound_nodes": [[["batch_normalization_75", 0, 0, {}]]], "config": {"activation": "relu", "trainable": true, "name": "activation_75"}, "name": "activation_75"}, {"class_name": "Conv2D", "inbound_nodes": [[["activation_71", 0, 0, {}]]], "config": {"kernel_initializer": {"class_name": "VarianceScaling", "config": {"distribution": "uniform", "scale": 1.0, "seed": null, "mode": "fan_avg"}}, "name": "conv2d_72", "kernel_constraint": null, "bias_regularizer": null, "bias_constraint": null, "activation": "linear", "trainable": true, "data_format": "channels_last", "padding": "valid", "strides": [2, 2], "dilation_rate": [1, 1], "kernel_regularizer": null, "filters": 320, "bias_initializer": {"class_name": "Zeros", "config": {}}, "use_bias": false, "activity_regularizer": null, "kernel_size": [3, 3]}, "name": "conv2d_72"}, {"class_name": "Conv2D", "inbound_nodes": [[["activation_75", 0, 0, {}]]], "config": {"kernel_initializer": {"class_name": "VarianceScaling", "config": {"distribution": "uniform", "scale": 1.0, "seed": null, "mode": "fan_avg"}}, "name": "conv2d_76", "kernel_constraint": null, "bias_regularizer": null, "bias_constraint": null, "activation": "linear", "trainable": true, "data_format": "channels_last", "padding": "valid", "strides": [2, 2], "dilation_rate": [1, 1], "kernel_regularizer": null, "filters": 192, "bias_initializer": {"class_name": "Zeros", "config": {}}, "use_bias": false, "activity_regularizer": null, "kernel_size": [3, 3]}, "name": "conv2d_76"}, {"class_name": "BatchNormalization", "inbound_nodes": [[["conv2d_72", 0, 0, {}]]], "config": {"gamma_initializer": {"class_name": "Ones", "config": {}}, "moving_mean_initializer": {"class_name": "Zeros", "config": {}}, "name": "batch_normalization_72", "epsilon": 0.001, "trainable": true, "center": true, "moving_variance_initializer": {"class_name": "Ones", "config": {}}, "beta_initializer": {"class_name": "Zeros", "config": {}}, "scale": false, "gamma_regularizer": null, "gamma_constraint": null, "beta_constraint": null, "beta_regularizer": null, "momentum": 0.99, "axis": 3}, "name": "batch_normalization_72"}, {"class_name": "BatchNormalization", "inbound_nodes": [[["conv2d_76", 0, 0, {}]]], "config": {"gamma_initializer": {"class_name": "Ones", "config": {}}, "moving_mean_initializer": {"class_name": "Zeros", "config": {}}, "name": "batch_normalization_76", "epsilon": 0.001, "trainable": true, "center": true, "moving_variance_initializer": {"class_name": "Ones", "config": {}}, "beta_initializer": {"class_name": "Zeros", "config": {}}, "scale": false, "gamma_regularizer": null, "gamma_constraint": null, "beta_constraint": null, "beta_regularizer": null, "momentum": 0.99, "axis": 3}, "name": "batch_normalization_76"}, {"class_name": "Activation", "inbound_nodes": [[["batch_normalization_72", 0, 0, {}]]], "config": {"activation": "relu", "trainable": true, "name": "activation_72"}, "name": "activation_72"}, {"class_name": "Activation", "inbound_nodes": [[["batch_normalization_76", 0, 0, {}]]], "config": {"activation": "relu", "trainable": true, "name": "activation_76"}, "name": "activation_76"}, {"class_name": "MaxPooling2D", "inbound_nodes": [[["mixed7", 0, 0, {}]]], "config": {"name": "max_pooling2d_4", "trainable": true, "data_format": "channels_last", "pool_size": [3, 3], "padding": "valid", "strides": [2, 2]}, "name": "max_pooling2d_4"}, {"class_name": "Concatenate", "inbound_nodes": [[["activation_72", 0, 0, {}], ["activation_76", 0, 0, {}], ["max_pooling2d_4", 0, 0, {}]]], "config": {"trainable": true, "name": "mixed8", "axis": 3}, "name": "mixed8"}, {"class_name": "Conv2D", "inbound_nodes": [[["mixed8", 0, 0, {}]]], "config": {"kernel_initializer": {"class_name": "VarianceScaling", "config": {"distribution": "uniform", "scale": 1.0, "seed": null, "mode": "fan_avg"}}, "name": "conv2d_81", "kernel_constraint": null, "bias_regularizer": null, "bias_constraint": null, "activation": "linear", "trainable": true, "data_format": "channels_last", "padding": "same", "strides": [1, 1], "dilation_rate": [1, 1], "kernel_regularizer": null, "filters": 448, "bias_initializer": {"class_name": "Zeros", "config": {}}, "use_bias": false, "activity_regularizer": null, "kernel_size": [1, 1]}, "name": "conv2d_81"}, {"class_name": "BatchNormalization", "inbound_nodes": [[["conv2d_81", 0, 0, {}]]], "config": {"gamma_initializer": {"class_name": "Ones", "config": {}}, "moving_mean_initializer": {"class_name": "Zeros", "config": {}}, "name": "batch_normalization_81", "epsilon": 0.001, "trainable": true, "center": true, "moving_variance_initializer": {"class_name": "Ones", "config": {}}, "beta_initializer": {"class_name": "Zeros", "config": {}}, "scale": false, "gamma_regularizer": null, "gamma_constraint": null, "beta_constraint": null, "beta_regularizer": null, "momentum": 0.99, "axis": 3}, "name": "batch_normalization_81"}, {"class_name": "Activation", "inbound_nodes": [[["batch_normalization_81", 0, 0, {}]]], "config": {"activation": "relu", "trainable": true, "name": "activation_81"}, "name": "activation_81"}, {"class_name": "Conv2D", "inbound_nodes": [[["mixed8", 0, 0, {}]]], "config": {"kernel_initializer": {"class_name": "VarianceScaling", "config": {"distribution": "uniform", "scale": 1.0, "seed": null, "mode": "fan_avg"}}, "name": "conv2d_78", "kernel_constraint": null, "bias_regularizer": null, "bias_constraint": null, "activation": "linear", "trainable": true, "data_format": "channels_last", "padding": "same", "strides": [1, 1], "dilation_rate": [1, 1], "kernel_regularizer": null, "filters": 384, "bias_initializer": {"class_name": "Zeros", "config": {}}, "use_bias": false, "activity_regularizer": null, "kernel_size": [1, 1]}, "name": "conv2d_78"}, {"class_name": "Conv2D", "inbound_nodes": [[["activation_81", 0, 0, {}]]], "config": {"kernel_initializer": {"class_name": "VarianceScaling", "config": {"distribution": "uniform", "scale": 1.0, "seed": null, "mode": "fan_avg"}}, "name": "conv2d_82", "kernel_constraint": null, "bias_regularizer": null, "bias_constraint": null, "activation": "linear", "trainable": true, "data_format": "channels_last", "padding": "same", "strides": [1, 1], "dilation_rate": [1, 1], "kernel_regularizer": null, "filters": 384, "bias_initializer": {"class_name": "Zeros", "config": {}}, "use_bias": false, "activity_regularizer": null, "kernel_size": [3, 3]}, "name": "conv2d_82"}, {"class_name": "BatchNormalization", "inbound_nodes": [[["conv2d_78", 0, 0, {}]]], "config": {"gamma_initializer": {"class_name": "Ones", "config": {}}, "moving_mean_initializer": {"class_name": "Zeros", "config": {}}, "name": "batch_normalization_78", "epsilon": 0.001, "trainable": true, "center": true, "moving_variance_initializer": {"class_name": "Ones", "config": {}}, "beta_initializer": {"class_name": "Zeros", "config": {}}, "scale": false, "gamma_regularizer": null, "gamma_constraint": null, "beta_constraint": null, "beta_regularizer": null, "momentum": 0.99, "axis": 3}, "name": "batch_normalization_78"}, {"class_name": "BatchNormalization", "inbound_nodes": [[["conv2d_82", 0, 0, {}]]], "config": {"gamma_initializer": {"class_name": "Ones", "config": {}}, "moving_mean_initializer": {"class_name": "Zeros", "config": {}}, "name": "batch_normalization_82", "epsilon": 0.001, "trainable": true, "center": true, "moving_variance_initializer": {"class_name": "Ones", "config": {}}, "beta_initializer": {"class_name": "Zeros", "config": {}}, "scale": false, "gamma_regularizer": null, "gamma_constraint": null, "beta_constraint": null, "beta_regularizer": null, "momentum": 0.99, "axis": 3}, "name": "batch_normalization_82"}, {"class_name": "Activation", "inbound_nodes": [[["batch_normalization_78", 0, 0, {}]]], "config": {"activation": "relu", "trainable": true, "name": "activation_78"}, "name": "activation_78"}, {"class_name": "Activation", "inbound_nodes": [[["batch_normalization_82", 0, 0, {}]]], "config": {"activation": "relu", "trainable": true, "name": "activation_82"}, "name": "activation_82"}, {"class_name": "Conv2D", "inbound_nodes": [[["activation_78", 0, 0, {}]]], "config": {"kernel_initializer": {"class_name": "VarianceScaling", "config": {"distribution": "uniform", "scale": 1.0, "seed": null, "mode": "fan_avg"}}, "name": "conv2d_79", "kernel_constraint": null, "bias_regularizer": null, "bias_constraint": null, "activation": "linear", "trainable": true, "data_format": "channels_last", "padding": "same", "strides": [1, 1], "dilation_rate": [1, 1], "kernel_regularizer": null, "filters": 384, "bias_initializer": {"class_name": "Zeros", "config": {}}, "use_bias": false, "activity_regularizer": null, "kernel_size": [1, 3]}, "name": "conv2d_79"}, {"class_name": "Conv2D", "inbound_nodes": [[["activation_78", 0, 0, {}]]], "config": {"kernel_initializer": {"class_name": "VarianceScaling", "config": {"distribution": "uniform", "scale": 1.0, "seed": null, "mode": "fan_avg"}}, "name": "conv2d_80", "kernel_constraint": null, "bias_regularizer": null, "bias_constraint": null, "activation": "linear", "trainable": true, "data_format": "channels_last", "padding": "same", "strides": [1, 1], "dilation_rate": [1, 1], "kernel_regularizer": null, "filters": 384, "bias_initializer": {"class_name": "Zeros", "config": {}}, "use_bias": false, "activity_regularizer": null, "kernel_size": [3, 1]}, "name": "conv2d_80"}, {"class_name": "Conv2D", "inbound_nodes": [[["activation_82", 0, 0, {}]]], "config": {"kernel_initializer": {"class_name": "VarianceScaling", "config": {"distribution": "uniform", "scale": 1.0, "seed": null, "mode": "fan_avg"}}, "name": "conv2d_83", "kernel_constraint": null, "bias_regularizer": null, "bias_constraint": null, "activation": "linear", "trainable": true, "data_format": "channels_last", "padding": "same", "strides": [1, 1], "dilation_rate": [1, 1], "kernel_regularizer": null, "filters": 384, "bias_initializer": {"class_name": "Zeros", "config": {}}, "use_bias": false, "activity_regularizer": null, "kernel_size": [1, 3]}, "name": "conv2d_83"}, {"class_name": "Conv2D", "inbound_nodes": [[["activation_82", 0, 0, {}]]], "config": {"kernel_initializer": {"class_name": "VarianceScaling", "config": {"distribution": "uniform", "scale": 1.0, "seed": null, "mode": "fan_avg"}}, "name": "conv2d_84", "kernel_constraint": null, "bias_regularizer": null, "bias_constraint": null, "activation": "linear", "trainable": true, "data_format": "channels_last", "padding": "same", "strides": [1, 1], "dilation_rate": [1, 1], "kernel_regularizer": null, "filters": 384, "bias_initializer": {"class_name": "Zeros", "config": {}}, "use_bias": false, "activity_regularizer": null, "kernel_size": [3, 1]}, "name": "conv2d_84"}, {"class_name": "AveragePooling2D", "inbound_nodes": [[["mixed8", 0, 0, {}]]], "config": {"name": "average_pooling2d_8", "trainable": true, "data_format": "channels_last", "pool_size": [3, 3], "padding": "same", "strides": [1, 1]}, "name": "average_pooling2d_8"}, {"class_name": "Conv2D", "inbound_nodes": [[["mixed8", 0, 0, {}]]], "config": {"kernel_initializer": {"class_name": "VarianceScaling", "config": {"distribution": "uniform", "scale": 1.0, "seed": null, "mode": "fan_avg"}}, "name": "conv2d_77", "kernel_constraint": null, "bias_regularizer": null, "bias_constraint": null, "activation": "linear", "trainable": true, "data_format": "channels_last", "padding": "same", "strides": [1, 1], "dilation_rate": [1, 1], "kernel_regularizer": null, "filters": 320, "bias_initializer": {"class_name": "Zeros", "config": {}}, "use_bias": false, "activity_regularizer": null, "kernel_size": [1, 1]}, "name": "conv2d_77"}, {"class_name": "BatchNormalization", "inbound_nodes": [[["conv2d_79", 0, 0, {}]]], "config": {"gamma_initializer": {"class_name": "Ones", "config": {}}, "moving_mean_initializer": {"class_name": "Zeros", "config": {}}, "name": "batch_normalization_79", "epsilon": 0.001, "trainable": true, "center": true, "moving_variance_initializer": {"class_name": "Ones", "config": {}}, "beta_initializer": {"class_name": "Zeros", "config": {}}, "scale": false, "gamma_regularizer": null, "gamma_constraint": null, "beta_constraint": null, "beta_regularizer": null, "momentum": 0.99, "axis": 3}, "name": "batch_normalization_79"}, {"class_name": "BatchNormalization", "inbound_nodes": [[["conv2d_80", 0, 0, {}]]], "config": {"gamma_initializer": {"class_name": "Ones", "config": {}}, "moving_mean_initializer": {"class_name": "Zeros", "config": {}}, "name": "batch_normalization_80", "epsilon": 0.001, "trainable": true, "center": true, "moving_variance_initializer": {"class_name": "Ones", "config": {}}, "beta_initializer": {"class_name": "Zeros", "config": {}}, "scale": false, "gamma_regularizer": null, "gamma_constraint": null, "beta_constraint": null, "beta_regularizer": null, "momentum": 0.99, "axis": 3}, "name": "batch_normalization_80"}, {"class_name": "BatchNormalization", "inbound_nodes": [[["conv2d_83", 0, 0, {}]]], "config": {"gamma_initializer": {"class_name": "Ones", "config": {}}, "moving_mean_initializer": {"class_name": "Zeros", "config": {}}, "name": "batch_normalization_83", "epsilon": 0.001, "trainable": true, "center": true, "moving_variance_initializer": {"class_name": "Ones", "config": {}}, "beta_initializer": {"class_name": "Zeros", "config": {}}, "scale": false, "gamma_regularizer": null, "gamma_constraint": null, "beta_constraint": null, "beta_regularizer": null, "momentum": 0.99, "axis": 3}, "name": "batch_normalization_83"}, {"class_name": "BatchNormalization", "inbound_nodes": [[["conv2d_84", 0, 0, {}]]], "config": {"gamma_initializer": {"class_name": "Ones", "config": {}}, "moving_mean_initializer": {"class_name": "Zeros", "config": {}}, "name": "batch_normalization_84", "epsilon": 0.001, "trainable": true, "center": true, "moving_variance_initializer": {"class_name": "Ones", "config": {}}, "beta_initializer": {"class_name": "Zeros", "config": {}}, "scale": false, "gamma_regularizer": null, "gamma_constraint": null, "beta_constraint": null, "beta_regularizer": null, "momentum": 0.99, "axis": 3}, "name": "batch_normalization_84"}, {"class_name": "Conv2D", "inbound_nodes": [[["average_pooling2d_8", 0, 0, {}]]], "config": {"kernel_initializer": {"class_name": "VarianceScaling", "config": {"distribution": "uniform", "scale": 1.0, "seed": null, "mode": "fan_avg"}}, "name": "conv2d_85", "kernel_constraint": null, "bias_regularizer": null, "bias_constraint": null, "activation": "linear", "trainable": true, "data_format": "channels_last", "padding": "same", "strides": [1, 1], "dilation_rate": [1, 1], "kernel_regularizer": null, "filters": 192, "bias_initializer": {"class_name": "Zeros", "config": {}}, "use_bias": false, "activity_regularizer": null, "kernel_size": [1, 1]}, "name": "conv2d_85"}, {"class_name": "BatchNormalization", "inbound_nodes": [[["conv2d_77", 0, 0, {}]]], "config": {"gamma_initializer": {"class_name": "Ones", "config": {}}, "moving_mean_initializer": {"class_name": "Zeros", "config": {}}, "name": "batch_normalization_77", "epsilon": 0.001, "trainable": true, "center": true, "moving_variance_initializer": {"class_name": "Ones", "config": {}}, "beta_initializer": {"class_name": "Zeros", "config": {}}, "scale": false, "gamma_regularizer": null, "gamma_constraint": null, "beta_constraint": null, "beta_regularizer": null, "momentum": 0.99, "axis": 3}, "name": "batch_normalization_77"}, {"class_name": "Activation", "inbound_nodes": [[["batch_normalization_79", 0, 0, {}]]], "config": {"activation": "relu", "trainable": true, "name": "activation_79"}, "name": "activation_79"}, {"class_name": "Activation", "inbound_nodes": [[["batch_normalization_80", 0, 0, {}]]], "config": {"activation": "relu", "trainable": true, "name": "activation_80"}, "name": "activation_80"}, {"class_name": "Activation", "inbound_nodes": [[["batch_normalization_83", 0, 0, {}]]], "config": {"activation": "relu", "trainable": true, "name": "activation_83"}, "name": "activation_83"}, {"class_name": "Activation", "inbound_nodes": [[["batch_normalization_84", 0, 0, {}]]], "config": {"activation": "relu", "trainable": true, "name": "activation_84"}, "name": "activation_84"}, {"class_name": "BatchNormalization", "inbound_nodes": [[["conv2d_85", 0, 0, {}]]], "config": {"gamma_initializer": {"class_name": "Ones", "config": {}}, "moving_mean_initializer": {"class_name": "Zeros", "config": {}}, "name": "batch_normalization_85", "epsilon": 0.001, "trainable": true, "center": true, "moving_variance_initializer": {"class_name": "Ones", "config": {}}, "beta_initializer": {"class_name": "Zeros", "config": {}}, "scale": false, "gamma_regularizer": null, "gamma_constraint": null, "beta_constraint": null, "beta_regularizer": null, "momentum": 0.99, "axis": 3}, "name": "batch_normalization_85"}, {"class_name": "Activation", "inbound_nodes": [[["batch_normalization_77", 0, 0, {}]]], "config": {"activation": "relu", "trainable": true, "name": "activation_77"}, "name": "activation_77"}, {"class_name": "Concatenate", "inbound_nodes": [[["activation_79", 0, 0, {}], ["activation_80", 0, 0, {}]]], "config": {"trainable": true, "name": "mixed9_0", "axis": 3}, "name": "mixed9_0"}, {"class_name": "Concatenate", "inbound_nodes": [[["activation_83", 0, 0, {}], ["activation_84", 0, 0, {}]]], "config": {"trainable": true, "name": "concatenate_1", "axis": 3}, "name": "concatenate_1"}, {"class_name": "Activation", "inbound_nodes": [[["batch_normalization_85", 0, 0, {}]]], "config": {"activation": "relu", "trainable": true, "name": "activation_85"}, "name": "activation_85"}, {"class_name": "Concatenate", "inbound_nodes": [[["activation_77", 0, 0, {}], ["mixed9_0", 0, 0, {}], ["concatenate_1", 0, 0, {}], ["activation_85", 0, 0, {}]]], "config": {"trainable": true, "name": "mixed9", "axis": 3}, "name": "mixed9"}, {"class_name": "Conv2D", "inbound_nodes": [[["mixed9", 0, 0, {}]]], "config": {"kernel_initializer": {"class_name": "VarianceScaling", "config": {"distribution": "uniform", "scale": 1.0, "seed": null, "mode": "fan_avg"}}, "name": "conv2d_90", "kernel_constraint": null, "bias_regularizer": null, "bias_constraint": null, "activation": "linear", "trainable": true, "data_format": "channels_last", "padding": "same", "strides": [1, 1], "dilation_rate": [1, 1], "kernel_regularizer": null, "filters": 448, "bias_initializer": {"class_name": "Zeros", "config": {}}, "use_bias": false, "activity_regularizer": null, "kernel_size": [1, 1]}, "name": "conv2d_90"}, {"class_name": "BatchNormalization", "inbound_nodes": [[["conv2d_90", 0, 0, {}]]], "config": {"gamma_initializer": {"class_name": "Ones", "config": {}}, "moving_mean_initializer": {"class_name": "Zeros", "config": {}}, "name": "batch_normalization_90", "epsilon": 0.001, "trainable": true, "center": true, "moving_variance_initializer": {"class_name": "Ones", "config": {}}, "beta_initializer": {"class_name": "Zeros", "config": {}}, "scale": false, "gamma_regularizer": null, "gamma_constraint": null, "beta_constraint": null, "beta_regularizer": null, "momentum": 0.99, "axis": 3}, "name": "batch_normalization_90"}, {"class_name": "Activation", "inbound_nodes": [[["batch_normalization_90", 0, 0, {}]]], "config": {"activation": "relu", "trainable": true, "name": "activation_90"}, "name": "activation_90"}, {"class_name": "Conv2D", "inbound_nodes": [[["mixed9", 0, 0, {}]]], "config": {"kernel_initializer": {"class_name": "VarianceScaling", "config": {"distribution": "uniform", "scale": 1.0, "seed": null, "mode": "fan_avg"}}, "name": "conv2d_87", "kernel_constraint": null, "bias_regularizer": null, "bias_constraint": null, "activation": "linear", "trainable": true, "data_format": "channels_last", "padding": "same", "strides": [1, 1], "dilation_rate": [1, 1], "kernel_regularizer": null, "filters": 384, "bias_initializer": {"class_name": "Zeros", "config": {}}, "use_bias": false, "activity_regularizer": null, "kernel_size": [1, 1]}, "name": "conv2d_87"}, {"class_name": "Conv2D", "inbound_nodes": [[["activation_90", 0, 0, {}]]], "config": {"kernel_initializer": {"class_name": "VarianceScaling", "config": {"distribution": "uniform", "scale": 1.0, "seed": null, "mode": "fan_avg"}}, "name": "conv2d_91", "kernel_constraint": null, "bias_regularizer": null, "bias_constraint": null, "activation": "linear", "trainable": true, "data_format": "channels_last", "padding": "same", "strides": [1, 1], "dilation_rate": [1, 1], "kernel_regularizer": null, "filters": 384, "bias_initializer": {"class_name": "Zeros", "config": {}}, "use_bias": false, "activity_regularizer": null, "kernel_size": [3, 3]}, "name": "conv2d_91"}, {"class_name": "BatchNormalization", "inbound_nodes": [[["conv2d_87", 0, 0, {}]]], "config": {"gamma_initializer": {"class_name": "Ones", "config": {}}, "moving_mean_initializer": {"class_name": "Zeros", "config": {}}, "name": "batch_normalization_87", "epsilon": 0.001, "trainable": true, "center": true, "moving_variance_initializer": {"class_name": "Ones", "config": {}}, "beta_initializer": {"class_name": "Zeros", "config": {}}, "scale": false, "gamma_regularizer": null, "gamma_constraint": null, "beta_constraint": null, "beta_regularizer": null, "momentum": 0.99, "axis": 3}, "name": "batch_normalization_87"}, {"class_name": "BatchNormalization", "inbound_nodes": [[["conv2d_91", 0, 0, {}]]], "config": {"gamma_initializer": {"class_name": "Ones", "config": {}}, "moving_mean_initializer": {"class_name": "Zeros", "config": {}}, "name": "batch_normalization_91", "epsilon": 0.001, "trainable": true, "center": true, "moving_variance_initializer": {"class_name": "Ones", "config": {}}, "beta_initializer": {"class_name": "Zeros", "config": {}}, "scale": false, "gamma_regularizer": null, "gamma_constraint": null, "beta_constraint": null, "beta_regularizer": null, "momentum": 0.99, "axis": 3}, "name": "batch_normalization_91"}, {"class_name": "Activation", "inbound_nodes": [[["batch_normalization_87", 0, 0, {}]]], "config": {"activation": "relu", "trainable": true, "name": "activation_87"}, "name": "activation_87"}, {"class_name": "Activation", "inbound_nodes": [[["batch_normalization_91", 0, 0, {}]]], "config": {"activation": "relu", "trainable": true, "name": "activation_91"}, "name": "activation_91"}, {"class_name": "Conv2D", "inbound_nodes": [[["activation_87", 0, 0, {}]]], "config": {"kernel_initializer": {"class_name": "VarianceScaling", "config": {"distribution": "uniform", "scale": 1.0, "seed": null, "mode": "fan_avg"}}, "name": "conv2d_88", "kernel_constraint": null, "bias_regularizer": null, "bias_constraint": null, "activation": "linear", "trainable": true, "data_format": "channels_last", "padding": "same", "strides": [1, 1], "dilation_rate": [1, 1], "kernel_regularizer": null, "filters": 384, "bias_initializer": {"class_name": "Zeros", "config": {}}, "use_bias": false, "activity_regularizer": null, "kernel_size": [1, 3]}, "name": "conv2d_88"}, {"class_name": "Conv2D", "inbound_nodes": [[["activation_87", 0, 0, {}]]], "config": {"kernel_initializer": {"class_name": "VarianceScaling", "config": {"distribution": "uniform", "scale": 1.0, "seed": null, "mode": "fan_avg"}}, "name": "conv2d_89", "kernel_constraint": null, "bias_regularizer": null, "bias_constraint": null, "activation": "linear", "trainable": true, "data_format": "channels_last", "padding": "same", "strides": [1, 1], "dilation_rate": [1, 1], "kernel_regularizer": null, "filters": 384, "bias_initializer": {"class_name": "Zeros", "config": {}}, "use_bias": false, "activity_regularizer": null, "kernel_size": [3, 1]}, "name": "conv2d_89"}, {"class_name": "Conv2D", "inbound_nodes": [[["activation_91", 0, 0, {}]]], "config": {"kernel_initializer": {"class_name": "VarianceScaling", "config": {"distribution": "uniform", "scale": 1.0, "seed": null, "mode": "fan_avg"}}, "name": "conv2d_92", "kernel_constraint": null, "bias_regularizer": null, "bias_constraint": null, "activation": "linear", "trainable": true, "data_format": "channels_last", "padding": "same", "strides": [1, 1], "dilation_rate": [1, 1], "kernel_regularizer": null, "filters": 384, "bias_initializer": {"class_name": "Zeros", "config": {}}, "use_bias": false, "activity_regularizer": null, "kernel_size": [1, 3]}, "name": "conv2d_92"}, {"class_name": "Conv2D", "inbound_nodes": [[["activation_91", 0, 0, {}]]], "config": {"kernel_initializer": {"class_name": "VarianceScaling", "config": {"distribution": "uniform", "scale": 1.0, "seed": null, "mode": "fan_avg"}}, "name": "conv2d_93", "kernel_constraint": null, "bias_regularizer": null, "bias_constraint": null, "activation": "linear", "trainable": true, "data_format": "channels_last", "padding": "same", "strides": [1, 1], "dilation_rate": [1, 1], "kernel_regularizer": null, "filters": 384, "bias_initializer": {"class_name": "Zeros", "config": {}}, "use_bias": false, "activity_regularizer": null, "kernel_size": [3, 1]}, "name": "conv2d_93"}, {"class_name": "AveragePooling2D", "inbound_nodes": [[["mixed9", 0, 0, {}]]], "config": {"name": "average_pooling2d_9", "trainable": true, "data_format": "channels_last", "pool_size": [3, 3], "padding": "same", "strides": [1, 1]}, "name": "average_pooling2d_9"}, {"class_name": "Conv2D", "inbound_nodes": [[["mixed9", 0, 0, {}]]], "config": {"kernel_initializer": {"class_name": "VarianceScaling", "config": {"distribution": "uniform", "scale": 1.0, "seed": null, "mode": "fan_avg"}}, "name": "conv2d_86", "kernel_constraint": null, "bias_regularizer": null, "bias_constraint": null, "activation": "linear", "trainable": true, "data_format": "channels_last", "padding": "same", "strides": [1, 1], "dilation_rate": [1, 1], "kernel_regularizer": null, "filters": 320, "bias_initializer": {"class_name": "Zeros", "config": {}}, "use_bias": false, "activity_regularizer": null, "kernel_size": [1, 1]}, "name": "conv2d_86"}, {"class_name": "BatchNormalization", "inbound_nodes": [[["conv2d_88", 0, 0, {}]]], "config": {"gamma_initializer": {"class_name": "Ones", "config": {}}, "moving_mean_initializer": {"class_name": "Zeros", "config": {}}, "name": "batch_normalization_88", "epsilon": 0.001, "trainable": true, "center": true, "moving_variance_initializer": {"class_name": "Ones", "config": {}}, "beta_initializer": {"class_name": "Zeros", "config": {}}, "scale": false, "gamma_regularizer": null, "gamma_constraint": null, "beta_constraint": null, "beta_regularizer": null, "momentum": 0.99, "axis": 3}, "name": "batch_normalization_88"}, {"class_name": "BatchNormalization", "inbound_nodes": [[["conv2d_89", 0, 0, {}]]], "config": {"gamma_initializer": {"class_name": "Ones", "config": {}}, "moving_mean_initializer": {"class_name": "Zeros", "config": {}}, "name": "batch_normalization_89", "epsilon": 0.001, "trainable": true, "center": true, "moving_variance_initializer": {"class_name": "Ones", "config": {}}, "beta_initializer": {"class_name": "Zeros", "config": {}}, "scale": false, "gamma_regularizer": null, "gamma_constraint": null, "beta_constraint": null, "beta_regularizer": null, "momentum": 0.99, "axis": 3}, "name": "batch_normalization_89"}, {"class_name": "BatchNormalization", "inbound_nodes": [[["conv2d_92", 0, 0, {}]]], "config": {"gamma_initializer": {"class_name": "Ones", "config": {}}, "moving_mean_initializer": {"class_name": "Zeros", "config": {}}, "name": "batch_normalization_92", "epsilon": 0.001, "trainable": true, "center": true, "moving_variance_initializer": {"class_name": "Ones", "config": {}}, "beta_initializer": {"class_name": "Zeros", "config": {}}, "scale": false, "gamma_regularizer": null, "gamma_constraint": null, "beta_constraint": null, "beta_regularizer": null, "momentum": 0.99, "axis": 3}, "name": "batch_normalization_92"}, {"class_name": "BatchNormalization", "inbound_nodes": [[["conv2d_93", 0, 0, {}]]], "config": {"gamma_initializer": {"class_name": "Ones", "config": {}}, "moving_mean_initializer": {"class_name": "Zeros", "config": {}}, "name": "batch_normalization_93", "epsilon": 0.001, "trainable": true, "center": true, "moving_variance_initializer": {"class_name": "Ones", "config": {}}, "beta_initializer": {"class_name": "Zeros", "config": {}}, "scale": false, "gamma_regularizer": null, "gamma_constraint": null, "beta_constraint": null, "beta_regularizer": null, "momentum": 0.99, "axis": 3}, "name": "batch_normalization_93"}, {"class_name": "Conv2D", "inbound_nodes": [[["average_pooling2d_9", 0, 0, {}]]], "config": {"kernel_initializer": {"class_name": "VarianceScaling", "config": {"distribution": "uniform", "scale": 1.0, "seed": null, "mode": "fan_avg"}}, "name": "conv2d_94", "kernel_constraint": null, "bias_regularizer": null, "bias_constraint": null, "activation": "linear", "trainable": true, "data_format": "channels_last", "padding": "same", "strides": [1, 1], "dilation_rate": [1, 1], "kernel_regularizer": null, "filters": 192, "bias_initializer": {"class_name": "Zeros", "config": {}}, "use_bias": false, "activity_regularizer": null, "kernel_size": [1, 1]}, "name": "conv2d_94"}, {"class_name": "BatchNormalization", "inbound_nodes": [[["conv2d_86", 0, 0, {}]]], "config": {"gamma_initializer": {"class_name": "Ones", "config": {}}, "moving_mean_initializer": {"class_name": "Zeros", "config": {}}, "name": "batch_normalization_86", "epsilon": 0.001, "trainable": true, "center": true, "moving_variance_initializer": {"class_name": "Ones", "config": {}}, "beta_initializer": {"class_name": "Zeros", "config": {}}, "scale": false, "gamma_regularizer": null, "gamma_constraint": null, "beta_constraint": null, "beta_regularizer": null, "momentum": 0.99, "axis": 3}, "name": "batch_normalization_86"}, {"class_name": "Activation", "inbound_nodes": [[["batch_normalization_88", 0, 0, {}]]], "config": {"activation": "relu", "trainable": true, "name": "activation_88"}, "name": "activation_88"}, {"class_name": "Activation", "inbound_nodes": [[["batch_normalization_89", 0, 0, {}]]], "config": {"activation": "relu", "trainable": true, "name": "activation_89"}, "name": "activation_89"}, {"class_name": "Activation", "inbound_nodes": [[["batch_normalization_92", 0, 0, {}]]], "config": {"activation": "relu", "trainable": true, "name": "activation_92"}, "name": "activation_92"}, {"class_name": "Activation", "inbound_nodes": [[["batch_normalization_93", 0, 0, {}]]], "config": {"activation": "relu", "trainable": true, "name": "activation_93"}, "name": "activation_93"}, {"class_name": "BatchNormalization", "inbound_nodes": [[["conv2d_94", 0, 0, {}]]], "config": {"gamma_initializer": {"class_name": "Ones", "config": {}}, "moving_mean_initializer": {"class_name": "Zeros", "config": {}}, "name": "batch_normalization_94", "epsilon": 0.001, "trainable": true, "center": true, "moving_variance_initializer": {"class_name": "Ones", "config": {}}, "beta_initializer": {"class_name": "Zeros", "config": {}}, "scale": false, "gamma_regularizer": null, "gamma_constraint": null, "beta_constraint": null, "beta_regularizer": null, "momentum": 0.99, "axis": 3}, "name": "batch_normalization_94"}, {"class_name": "Activation", "inbound_nodes": [[["batch_normalization_86", 0, 0, {}]]], "config": {"activation": "relu", "trainable": true, "name": "activation_86"}, "name": "activation_86"}, {"class_name": "Concatenate", "inbound_nodes": [[["activation_88", 0, 0, {}], ["activation_89", 0, 0, {}]]], "config": {"trainable": true, "name": "mixed9_1", "axis": 3}, "name": "mixed9_1"}, {"class_name": "Concatenate", "inbound_nodes": [[["activation_92", 0, 0, {}], ["activation_93", 0, 0, {}]]], "config": {"trainable": true, "name": "concatenate_2", "axis": 3}, "name": "concatenate_2"}, {"class_name": "Activation", "inbound_nodes": [[["batch_normalization_94", 0, 0, {}]]], "config": {"activation": "relu", "trainable": true, "name": "activation_94"}, "name": "activation_94"}, {"class_name": "Concatenate", "inbound_nodes": [[["activation_86", 0, 0, {}], ["mixed9_1", 0, 0, {}], ["concatenate_2", 0, 0, {}], ["activation_94", 0, 0, {}]]], "config": {"trainable": true, "name": "mixed10", "axis": 3}, "name": "mixed10"}, {"class_name": "GlobalAveragePooling2D", "inbound_nodes": [[["mixed10", 0, 0, {}]]], "config": {"trainable": true, "name": "avg_pool", "data_format": "channels_last"}, "name": "avg_pool"}, {"class_name": "Dense", "inbound_nodes": [[["avg_pool", 0, 0, {}]]], "config": {"kernel_initializer": {"class_name": "VarianceScaling", "config": {"distribution": "uniform", "scale": 1.0, "seed": null, "mode": "fan_avg"}}, "name": "predictions", "kernel_constraint": null, "bias_regularizer": null, "bias_constraint": null, "activation": "softmax", "trainable": true, "kernel_regularizer": null, "bias_initializer": {"class_name": "Zeros", "config": {}}, "units": 1000, "use_bias": true, "activity_regularizer": null}, "name": "predictions"}], "input_layers": [["input_1", 0, 0]], "name": "inception_v3", "output_layers": [["predictions", 0, 0]]}}, "backend": "tensorflow"}, "weightsManifest": [{"paths": ["group1-shard1of23", "group1-shard2of23", "group1-shard3of23", "group1-shard4of23", "group1-shard5of23", "group1-shard6of23", "group1-shard7of23", "group1-shard8of23", "group1-shard9of23", "group1-shard10of23", "group1-shard11of23", "group1-shard12of23", "group1-shard13of23", "group1-shard14of23", "group1-shard15of23", "group1-shard16of23", "group1-shard17of23", "group1-shard18of23", "group1-shard19of23", "group1-shard20of23", "group1-shard21of23", "group1-shard22of23", "group1-shard23of23"], "weights": [{"dtype": "float32", "shape": [32], "name": "batch_normalization_1/beta"}, {"dtype": "float32", "shape": [32], "name": "batch_normalization_1/moving_mean"}, {"dtype": "float32", "shape": [32], "name": "batch_normalization_1/moving_variance"}, {"dtype": "float32", "shape": [96], "name": "batch_normalization_10/beta"}, {"dtype": "float32", "shape": [96], "name": "batch_normalization_10/moving_mean"}, {"dtype": "float32", "shape": [96], "name": "batch_normalization_10/moving_variance"}, {"dtype": "float32", "shape": [96], "name": "batch_normalization_11/beta"}, {"dtype": "float32", "shape": [96], "name": "batch_normalization_11/moving_mean"}, {"dtype": "float32", "shape": [96], "name": "batch_normalization_11/moving_variance"}, {"dtype": "float32", "shape": [32], "name": "batch_normalization_12/beta"}, {"dtype": "float32", "shape": [32], "name": "batch_normalization_12/moving_mean"}, {"dtype": "float32", "shape": [32], "name": "batch_normalization_12/moving_variance"}, {"dtype": "float32", "shape": [64], "name": "batch_normalization_13/beta"}, {"dtype": "float32", "shape": [64], "name": "batch_normalization_13/moving_mean"}, {"dtype": "float32", "shape": [64], "name": "batch_normalization_13/moving_variance"}, {"dtype": "float32", "shape": [48], "name": "batch_normalization_14/beta"}, {"dtype": "float32", "shape": [48], "name": "batch_normalization_14/moving_mean"}, {"dtype": "float32", "shape": [48], "name": "batch_normalization_14/moving_variance"}, {"dtype": "float32", "shape": [64], "name": "batch_normalization_15/beta"}, {"dtype": "float32", "shape": [64], "name": "batch_normalization_15/moving_mean"}, {"dtype": "float32", "shape": [64], "name": "batch_normalization_15/moving_variance"}, {"dtype": "float32", "shape": [64], "name": "batch_normalization_16/beta"}, {"dtype": "float32", "shape": [64], "name": "batch_normalization_16/moving_mean"}, {"dtype": "float32", "shape": [64], "name": "batch_normalization_16/moving_variance"}, {"dtype": "float32", "shape": [96], "name": "batch_normalization_17/beta"}, {"dtype": "float32", "shape": [96], "name": "batch_normalization_17/moving_mean"}, {"dtype": "float32", "shape": [96], "name": "batch_normalization_17/moving_variance"}, {"dtype": "float32", "shape": [96], "name": "batch_normalization_18/beta"}, {"dtype": "float32", "shape": [96], "name": "batch_normalization_18/moving_mean"}, {"dtype": "float32", "shape": [96], "name": "batch_normalization_18/moving_variance"}, {"dtype": "float32", "shape": [64], "name": "batch_normalization_19/beta"}, {"dtype": "float32", "shape": [64], "name": "batch_normalization_19/moving_mean"}, {"dtype": "float32", "shape": [64], "name": "batch_normalization_19/moving_variance"}, {"dtype": "float32", "shape": [32], "name": "batch_normalization_2/beta"}, {"dtype": "float32", "shape": [32], "name": "batch_normalization_2/moving_mean"}, {"dtype": "float32", "shape": [32], "name": "batch_normalization_2/moving_variance"}, {"dtype": "float32", "shape": [64], "name": "batch_normalization_20/beta"}, {"dtype": "float32", "shape": [64], "name": "batch_normalization_20/moving_mean"}, {"dtype": "float32", "shape": [64], "name": "batch_normalization_20/moving_variance"}, {"dtype": "float32", "shape": [48], "name": "batch_normalization_21/beta"}, {"dtype": "float32", "shape": [48], "name": "batch_normalization_21/moving_mean"}, {"dtype": "float32", "shape": [48], "name": "batch_normalization_21/moving_variance"}, {"dtype": "float32", "shape": [64], "name": "batch_normalization_22/beta"}, {"dtype": "float32", "shape": [64], "name": "batch_normalization_22/moving_mean"}, {"dtype": "float32", "shape": [64], "name": "batch_normalization_22/moving_variance"}, {"dtype": "float32", "shape": [64], "name": "batch_normalization_23/beta"}, {"dtype": "float32", "shape": [64], "name": "batch_normalization_23/moving_mean"}, {"dtype": "float32", "shape": [64], "name": "batch_normalization_23/moving_variance"}, {"dtype": "float32", "shape": [96], "name": "batch_normalization_24/beta"}, {"dtype": "float32", "shape": [96], "name": "batch_normalization_24/moving_mean"}, {"dtype": "float32", "shape": [96], "name": "batch_normalization_24/moving_variance"}, {"dtype": "float32", "shape": [96], "name": "batch_normalization_25/beta"}, {"dtype": "float32", "shape": [96], "name": "batch_normalization_25/moving_mean"}, {"dtype": "float32", "shape": [96], "name": "batch_normalization_25/moving_variance"}, {"dtype": "float32", "shape": [64], "name": "batch_normalization_26/beta"}, {"dtype": "float32", "shape": [64], "name": "batch_normalization_26/moving_mean"}, {"dtype": "float32", "shape": [64], "name": "batch_normalization_26/moving_variance"}, {"dtype": "float32", "shape": [384], "name": "batch_normalization_27/beta"}, {"dtype": "float32", "shape": [384], "name": "batch_normalization_27/moving_mean"}, {"dtype": "float32", "shape": [384], "name": "batch_normalization_27/moving_variance"}, {"dtype": "float32", "shape": [64], "name": "batch_normalization_28/beta"}, {"dtype": "float32", "shape": [64], "name": "batch_normalization_28/moving_mean"}, {"dtype": "float32", "shape": [64], "name": "batch_normalization_28/moving_variance"}, {"dtype": "float32", "shape": [96], "name": "batch_normalization_29/beta"}, {"dtype": "float32", "shape": [96], "name": "batch_normalization_29/moving_mean"}, {"dtype": "float32", "shape": [96], "name": "batch_normalization_29/moving_variance"}, {"dtype": "float32", "shape": [64], "name": "batch_normalization_3/beta"}, {"dtype": "float32", "shape": [64], "name": "batch_normalization_3/moving_mean"}, {"dtype": "float32", "shape": [64], "name": "batch_normalization_3/moving_variance"}, {"dtype": "float32", "shape": [96], "name": "batch_normalization_30/beta"}, {"dtype": "float32", "shape": [96], "name": "batch_normalization_30/moving_mean"}, {"dtype": "float32", "shape": [96], "name": "batch_normalization_30/moving_variance"}, {"dtype": "float32", "shape": [192], "name": "batch_normalization_31/beta"}, {"dtype": "float32", "shape": [192], "name": "batch_normalization_31/moving_mean"}, {"dtype": "float32", "shape": [192], "name": "batch_normalization_31/moving_variance"}, {"dtype": "float32", "shape": [128], "name": "batch_normalization_32/beta"}, {"dtype": "float32", "shape": [128], "name": "batch_normalization_32/moving_mean"}, {"dtype": "float32", "shape": [128], "name": "batch_normalization_32/moving_variance"}, {"dtype": "float32", "shape": [128], "name": "batch_normalization_33/beta"}, {"dtype": "float32", "shape": [128], "name": "batch_normalization_33/moving_mean"}, {"dtype": "float32", "shape": [128], "name": "batch_normalization_33/moving_variance"}, {"dtype": "float32", "shape": [192], "name": "batch_normalization_34/beta"}, {"dtype": "float32", "shape": [192], "name": "batch_normalization_34/moving_mean"}, {"dtype": "float32", "shape": [192], "name": "batch_normalization_34/moving_variance"}, {"dtype": "float32", "shape": [128], "name": "batch_normalization_35/beta"}, {"dtype": "float32", "shape": [128], "name": "batch_normalization_35/moving_mean"}, {"dtype": "float32", "shape": [128], "name": "batch_normalization_35/moving_variance"}, {"dtype": "float32", "shape": [128], "name": "batch_normalization_36/beta"}, {"dtype": "float32", "shape": [128], "name": "batch_normalization_36/moving_mean"}, {"dtype": "float32", "shape": [128], "name": "batch_normalization_36/moving_variance"}, {"dtype": "float32", "shape": [128], "name": "batch_normalization_37/beta"}, {"dtype": "float32", "shape": [128], "name": "batch_normalization_37/moving_mean"}, {"dtype": "float32", "shape": [128], "name": "batch_normalization_37/moving_variance"}, {"dtype": "float32", "shape": [128], "name": "batch_normalization_38/beta"}, {"dtype": "float32", "shape": [128], "name": "batch_normalization_38/moving_mean"}, {"dtype": "float32", "shape": [128], "name": "batch_normalization_38/moving_variance"}, {"dtype": "float32", "shape": [192], "name": "batch_normalization_39/beta"}, {"dtype": "float32", "shape": [192], "name": "batch_normalization_39/moving_mean"}, {"dtype": "float32", "shape": [192], "name": "batch_normalization_39/moving_variance"}, {"dtype": "float32", "shape": [80], "name": "batch_normalization_4/beta"}, {"dtype": "float32", "shape": [80], "name": "batch_normalization_4/moving_mean"}, {"dtype": "float32", "shape": [80], "name": "batch_normalization_4/moving_variance"}, {"dtype": "float32", "shape": [192], "name": "batch_normalization_40/beta"}, {"dtype": "float32", "shape": [192], "name": "batch_normalization_40/moving_mean"}, {"dtype": "float32", "shape": [192], "name": "batch_normalization_40/moving_variance"}, {"dtype": "float32", "shape": [192], "name": "batch_normalization_41/beta"}, {"dtype": "float32", "shape": [192], "name": "batch_normalization_41/moving_mean"}, {"dtype": "float32", "shape": [192], "name": "batch_normalization_41/moving_variance"}, {"dtype": "float32", "shape": [160], "name": "batch_normalization_42/beta"}, {"dtype": "float32", "shape": [160], "name": "batch_normalization_42/moving_mean"}, {"dtype": "float32", "shape": [160], "name": "batch_normalization_42/moving_variance"}, {"dtype": "float32", "shape": [160], "name": "batch_normalization_43/beta"}, {"dtype": "float32", "shape": [160], "name": "batch_normalization_43/moving_mean"}, {"dtype": "float32", "shape": [160], "name": "batch_normalization_43/moving_variance"}, {"dtype": "float32", "shape": [192], "name": "batch_normalization_44/beta"}, {"dtype": "float32", "shape": [192], "name": "batch_normalization_44/moving_mean"}, {"dtype": "float32", "shape": [192], "name": "batch_normalization_44/moving_variance"}, {"dtype": "float32", "shape": [160], "name": "batch_normalization_45/beta"}, {"dtype": "float32", "shape": [160], "name": "batch_normalization_45/moving_mean"}, {"dtype": "float32", "shape": [160], "name": "batch_normalization_45/moving_variance"}, {"dtype": "float32", "shape": [160], "name": "batch_normalization_46/beta"}, {"dtype": "float32", "shape": [160], "name": "batch_normalization_46/moving_mean"}, {"dtype": "float32", "shape": [160], "name": "batch_normalization_46/moving_variance"}, {"dtype": "float32", "shape": [160], "name": "batch_normalization_47/beta"}, {"dtype": "float32", "shape": [160], "name": "batch_normalization_47/moving_mean"}, {"dtype": "float32", "shape": [160], "name": "batch_normalization_47/moving_variance"}, {"dtype": "float32", "shape": [160], "name": "batch_normalization_48/beta"}, {"dtype": "float32", "shape": [160], "name": "batch_normalization_48/moving_mean"}, {"dtype": "float32", "shape": [160], "name": "batch_normalization_48/moving_variance"}, {"dtype": "float32", "shape": [192], "name": "batch_normalization_49/beta"}, {"dtype": "float32", "shape": [192], "name": "batch_normalization_49/moving_mean"}, {"dtype": "float32", "shape": [192], "name": "batch_normalization_49/moving_variance"}, {"dtype": "float32", "shape": [192], "name": "batch_normalization_5/beta"}, {"dtype": "float32", "shape": [192], "name": "batch_normalization_5/moving_mean"}, {"dtype": "float32", "shape": [192], "name": "batch_normalization_5/moving_variance"}, {"dtype": "float32", "shape": [192], "name": "batch_normalization_50/beta"}, {"dtype": "float32", "shape": [192], "name": "batch_normalization_50/moving_mean"}, {"dtype": "float32", "shape": [192], "name": "batch_normalization_50/moving_variance"}, {"dtype": "float32", "shape": [192], "name": "batch_normalization_51/beta"}, {"dtype": "float32", "shape": [192], "name": "batch_normalization_51/moving_mean"}, {"dtype": "float32", "shape": [192], "name": "batch_normalization_51/moving_variance"}, {"dtype": "float32", "shape": [160], "name": "batch_normalization_52/beta"}, {"dtype": "float32", "shape": [160], "name": "batch_normalization_52/moving_mean"}, {"dtype": "float32", "shape": [160], "name": "batch_normalization_52/moving_variance"}, {"dtype": "float32", "shape": [160], "name": "batch_normalization_53/beta"}, {"dtype": "float32", "shape": [160], "name": "batch_normalization_53/moving_mean"}, {"dtype": "float32", "shape": [160], "name": "batch_normalization_53/moving_variance"}, {"dtype": "float32", "shape": [192], "name": "batch_normalization_54/beta"}, {"dtype": "float32", "shape": [192], "name": "batch_normalization_54/moving_mean"}, {"dtype": "float32", "shape": [192], "name": "batch_normalization_54/moving_variance"}, {"dtype": "float32", "shape": [160], "name": "batch_normalization_55/beta"}, {"dtype": "float32", "shape": [160], "name": "batch_normalization_55/moving_mean"}, {"dtype": "float32", "shape": [160], "name": "batch_normalization_55/moving_variance"}, {"dtype": "float32", "shape": [160], "name": "batch_normalization_56/beta"}, {"dtype": "float32", "shape": [160], "name": "batch_normalization_56/moving_mean"}, {"dtype": "float32", "shape": [160], "name": "batch_normalization_56/moving_variance"}, {"dtype": "float32", "shape": [160], "name": "batch_normalization_57/beta"}, {"dtype": "float32", "shape": [160], "name": "batch_normalization_57/moving_mean"}, {"dtype": "float32", "shape": [160], "name": "batch_normalization_57/moving_variance"}, {"dtype": "float32", "shape": [160], "name": "batch_normalization_58/beta"}, {"dtype": "float32", "shape": [160], "name": "batch_normalization_58/moving_mean"}, {"dtype": "float32", "shape": [160], "name": "batch_normalization_58/moving_variance"}, {"dtype": "float32", "shape": [192], "name": "batch_normalization_59/beta"}, {"dtype": "float32", "shape": [192], "name": "batch_normalization_59/moving_mean"}, {"dtype": "float32", "shape": [192], "name": "batch_normalization_59/moving_variance"}, {"dtype": "float32", "shape": [64], "name": "batch_normalization_6/beta"}, {"dtype": "float32", "shape": [64], "name": "batch_normalization_6/moving_mean"}, {"dtype": "float32", "shape": [64], "name": "batch_normalization_6/moving_variance"}, {"dtype": "float32", "shape": [192], "name": "batch_normalization_60/beta"}, {"dtype": "float32", "shape": [192], "name": "batch_normalization_60/moving_mean"}, {"dtype": "float32", "shape": [192], "name": "batch_normalization_60/moving_variance"}, {"dtype": "float32", "shape": [192], "name": "batch_normalization_61/beta"}, {"dtype": "float32", "shape": [192], "name": "batch_normalization_61/moving_mean"}, {"dtype": "float32", "shape": [192], "name": "batch_normalization_61/moving_variance"}, {"dtype": "float32", "shape": [192], "name": "batch_normalization_62/beta"}, {"dtype": "float32", "shape": [192], "name": "batch_normalization_62/moving_mean"}, {"dtype": "float32", "shape": [192], "name": "batch_normalization_62/moving_variance"}, {"dtype": "float32", "shape": [192], "name": "batch_normalization_63/beta"}, {"dtype": "float32", "shape": [192], "name": "batch_normalization_63/moving_mean"}, {"dtype": "float32", "shape": [192], "name": "batch_normalization_63/moving_variance"}, {"dtype": "float32", "shape": [192], "name": "batch_normalization_64/beta"}, {"dtype": "float32", "shape": [192], "name": "batch_normalization_64/moving_mean"}, {"dtype": "float32", "shape": [192], "name": "batch_normalization_64/moving_variance"}, {"dtype": "float32", "shape": [192], "name": "batch_normalization_65/beta"}, {"dtype": "float32", "shape": [192], "name": "batch_normalization_65/moving_mean"}, {"dtype": "float32", "shape": [192], "name": "batch_normalization_65/moving_variance"}, {"dtype": "float32", "shape": [192], "name": "batch_normalization_66/beta"}, {"dtype": "float32", "shape": [192], "name": "batch_normalization_66/moving_mean"}, {"dtype": "float32", "shape": [192], "name": "batch_normalization_66/moving_variance"}, {"dtype": "float32", "shape": [192], "name": "batch_normalization_67/beta"}, {"dtype": "float32", "shape": [192], "name": "batch_normalization_67/moving_mean"}, {"dtype": "float32", "shape": [192], "name": "batch_normalization_67/moving_variance"}, {"dtype": "float32", "shape": [192], "name": "batch_normalization_68/beta"}, {"dtype": "float32", "shape": [192], "name": "batch_normalization_68/moving_mean"}, {"dtype": "float32", "shape": [192], "name": "batch_normalization_68/moving_variance"}, {"dtype": "float32", "shape": [192], "name": "batch_normalization_69/beta"}, {"dtype": "float32", "shape": [192], "name": "batch_normalization_69/moving_mean"}, {"dtype": "float32", "shape": [192], "name": "batch_normalization_69/moving_variance"}, {"dtype": "float32", "shape": [48], "name": "batch_normalization_7/beta"}, {"dtype": "float32", "shape": [48], "name": "batch_normalization_7/moving_mean"}, {"dtype": "float32", "shape": [48], "name": "batch_normalization_7/moving_variance"}, {"dtype": "float32", "shape": [192], "name": "batch_normalization_70/beta"}, {"dtype": "float32", "shape": [192], "name": "batch_normalization_70/moving_mean"}, {"dtype": "float32", "shape": [192], "name": "batch_normalization_70/moving_variance"}, {"dtype": "float32", "shape": [192], "name": "batch_normalization_71/beta"}, {"dtype": "float32", "shape": [192], "name": "batch_normalization_71/moving_mean"}, {"dtype": "float32", "shape": [192], "name": "batch_normalization_71/moving_variance"}, {"dtype": "float32", "shape": [320], "name": "batch_normalization_72/beta"}, {"dtype": "float32", "shape": [320], "name": "batch_normalization_72/moving_mean"}, {"dtype": "float32", "shape": [320], "name": "batch_normalization_72/moving_variance"}, {"dtype": "float32", "shape": [192], "name": "batch_normalization_73/beta"}, {"dtype": "float32", "shape": [192], "name": "batch_normalization_73/moving_mean"}, {"dtype": "float32", "shape": [192], "name": "batch_normalization_73/moving_variance"}, {"dtype": "float32", "shape": [192], "name": "batch_normalization_74/beta"}, {"dtype": "float32", "shape": [192], "name": "batch_normalization_74/moving_mean"}, {"dtype": "float32", "shape": [192], "name": "batch_normalization_74/moving_variance"}, {"dtype": "float32", "shape": [192], "name": "batch_normalization_75/beta"}, {"dtype": "float32", "shape": [192], "name": "batch_normalization_75/moving_mean"}, {"dtype": "float32", "shape": [192], "name": "batch_normalization_75/moving_variance"}, {"dtype": "float32", "shape": [192], "name": "batch_normalization_76/beta"}, {"dtype": "float32", "shape": [192], "name": "batch_normalization_76/moving_mean"}, {"dtype": "float32", "shape": [192], "name": "batch_normalization_76/moving_variance"}, {"dtype": "float32", "shape": [320], "name": "batch_normalization_77/beta"}, {"dtype": "float32", "shape": [320], "name": "batch_normalization_77/moving_mean"}, {"dtype": "float32", "shape": [320], "name": "batch_normalization_77/moving_variance"}, {"dtype": "float32", "shape": [384], "name": "batch_normalization_78/beta"}, {"dtype": "float32", "shape": [384], "name": "batch_normalization_78/moving_mean"}, {"dtype": "float32", "shape": [384], "name": "batch_normalization_78/moving_variance"}, {"dtype": "float32", "shape": [384], "name": "batch_normalization_79/beta"}, {"dtype": "float32", "shape": [384], "name": "batch_normalization_79/moving_mean"}, {"dtype": "float32", "shape": [384], "name": "batch_normalization_79/moving_variance"}, {"dtype": "float32", "shape": [64], "name": "batch_normalization_8/beta"}, {"dtype": "float32", "shape": [64], "name": "batch_normalization_8/moving_mean"}, {"dtype": "float32", "shape": [64], "name": "batch_normalization_8/moving_variance"}, {"dtype": "float32", "shape": [384], "name": "batch_normalization_80/beta"}, {"dtype": "float32", "shape": [384], "name": "batch_normalization_80/moving_mean"}, {"dtype": "float32", "shape": [384], "name": "batch_normalization_80/moving_variance"}, {"dtype": "float32", "shape": [448], "name": "batch_normalization_81/beta"}, {"dtype": "float32", "shape": [448], "name": "batch_normalization_81/moving_mean"}, {"dtype": "float32", "shape": [448], "name": "batch_normalization_81/moving_variance"}, {"dtype": "float32", "shape": [384], "name": "batch_normalization_82/beta"}, {"dtype": "float32", "shape": [384], "name": "batch_normalization_82/moving_mean"}, {"dtype": "float32", "shape": [384], "name": "batch_normalization_82/moving_variance"}, {"dtype": "float32", "shape": [384], "name": "batch_normalization_83/beta"}, {"dtype": "float32", "shape": [384], "name": "batch_normalization_83/moving_mean"}, {"dtype": "float32", "shape": [384], "name": "batch_normalization_83/moving_variance"}, {"dtype": "float32", "shape": [384], "name": "batch_normalization_84/beta"}, {"dtype": "float32", "shape": [384], "name": "batch_normalization_84/moving_mean"}, {"dtype": "float32", "shape": [384], "name": "batch_normalization_84/moving_variance"}, {"dtype": "float32", "shape": [192], "name": "batch_normalization_85/beta"}, {"dtype": "float32", "shape": [192], "name": "batch_normalization_85/moving_mean"}, {"dtype": "float32", "shape": [192], "name": "batch_normalization_85/moving_variance"}, {"dtype": "float32", "shape": [320], "name": "batch_normalization_86/beta"}, {"dtype": "float32", "shape": [320], "name": "batch_normalization_86/moving_mean"}, {"dtype": "float32", "shape": [320], "name": "batch_normalization_86/moving_variance"}, {"dtype": "float32", "shape": [384], "name": "batch_normalization_87/beta"}, {"dtype": "float32", "shape": [384], "name": "batch_normalization_87/moving_mean"}, {"dtype": "float32", "shape": [384], "name": "batch_normalization_87/moving_variance"}, {"dtype": "float32", "shape": [384], "name": "batch_normalization_88/beta"}, {"dtype": "float32", "shape": [384], "name": "batch_normalization_88/moving_mean"}, {"dtype": "float32", "shape": [384], "name": "batch_normalization_88/moving_variance"}, {"dtype": "float32", "shape": [384], "name": "batch_normalization_89/beta"}, {"dtype": "float32", "shape": [384], "name": "batch_normalization_89/moving_mean"}, {"dtype": "float32", "shape": [384], "name": "batch_normalization_89/moving_variance"}, {"dtype": "float32", "shape": [64], "name": "batch_normalization_9/beta"}, {"dtype": "float32", "shape": [64], "name": "batch_normalization_9/moving_mean"}, {"dtype": "float32", "shape": [64], "name": "batch_normalization_9/moving_variance"}, {"dtype": "float32", "shape": [448], "name": "batch_normalization_90/beta"}, {"dtype": "float32", "shape": [448], "name": "batch_normalization_90/moving_mean"}, {"dtype": "float32", "shape": [448], "name": "batch_normalization_90/moving_variance"}, {"dtype": "float32", "shape": [384], "name": "batch_normalization_91/beta"}, {"dtype": "float32", "shape": [384], "name": "batch_normalization_91/moving_mean"}, {"dtype": "float32", "shape": [384], "name": "batch_normalization_91/moving_variance"}, {"dtype": "float32", "shape": [384], "name": "batch_normalization_92/beta"}, {"dtype": "float32", "shape": [384], "name": "batch_normalization_92/moving_mean"}, {"dtype": "float32", "shape": [384], "name": "batch_normalization_92/moving_variance"}, {"dtype": "float32", "shape": [384], "name": "batch_normalization_93/beta"}, {"dtype": "float32", "shape": [384], "name": "batch_normalization_93/moving_mean"}, {"dtype": "float32", "shape": [384], "name": "batch_normalization_93/moving_variance"}, {"dtype": "float32", "shape": [192], "name": "batch_normalization_94/beta"}, {"dtype": "float32", "shape": [192], "name": "batch_normalization_94/moving_mean"}, {"dtype": "float32", "shape": [192], "name": "batch_normalization_94/moving_variance"}, {"dtype": "float32", "shape": [3, 3, 3, 32], "name": "conv2d_1/kernel"}, {"dtype": "float32", "shape": [3, 3, 64, 96], "name": "conv2d_10/kernel"}, {"dtype": "float32", "shape": [3, 3, 96, 96], "name": "conv2d_11/kernel"}, {"dtype": "float32", "shape": [1, 1, 192, 32], "name": "conv2d_12/kernel"}, {"dtype": "float32", "shape": [1, 1, 256, 64], "name": "conv2d_13/kernel"}, {"dtype": "float32", "shape": [1, 1, 256, 48], "name": "conv2d_14/kernel"}, {"dtype": "float32", "shape": [5, 5, 48, 64], "name": "conv2d_15/kernel"}, {"dtype": "float32", "shape": [1, 1, 256, 64], "name": "conv2d_16/kernel"}, {"dtype": "float32", "shape": [3, 3, 64, 96], "name": "conv2d_17/kernel"}, {"dtype": "float32", "shape": [3, 3, 96, 96], "name": "conv2d_18/kernel"}, {"dtype": "float32", "shape": [1, 1, 256, 64], "name": "conv2d_19/kernel"}, {"dtype": "float32", "shape": [3, 3, 32, 32], "name": "conv2d_2/kernel"}, {"dtype": "float32", "shape": [1, 1, 288, 64], "name": "conv2d_20/kernel"}, {"dtype": "float32", "shape": [1, 1, 288, 48], "name": "conv2d_21/kernel"}, {"dtype": "float32", "shape": [5, 5, 48, 64], "name": "conv2d_22/kernel"}, {"dtype": "float32", "shape": [1, 1, 288, 64], "name": "conv2d_23/kernel"}, {"dtype": "float32", "shape": [3, 3, 64, 96], "name": "conv2d_24/kernel"}, {"dtype": "float32", "shape": [3, 3, 96, 96], "name": "conv2d_25/kernel"}, {"dtype": "float32", "shape": [1, 1, 288, 64], "name": "conv2d_26/kernel"}, {"dtype": "float32", "shape": [3, 3, 288, 384], "name": "conv2d_27/kernel"}, {"dtype": "float32", "shape": [1, 1, 288, 64], "name": "conv2d_28/kernel"}, {"dtype": "float32", "shape": [3, 3, 64, 96], "name": "conv2d_29/kernel"}, {"dtype": "float32", "shape": [3, 3, 32, 64], "name": "conv2d_3/kernel"}, {"dtype": "float32", "shape": [3, 3, 96, 96], "name": "conv2d_30/kernel"}, {"dtype": "float32", "shape": [1, 1, 768, 192], "name": "conv2d_31/kernel"}, {"dtype": "float32", "shape": [1, 1, 768, 128], "name": "conv2d_32/kernel"}, {"dtype": "float32", "shape": [1, 7, 128, 128], "name": "conv2d_33/kernel"}, {"dtype": "float32", "shape": [7, 1, 128, 192], "name": "conv2d_34/kernel"}, {"dtype": "float32", "shape": [1, 1, 768, 128], "name": "conv2d_35/kernel"}, {"dtype": "float32", "shape": [7, 1, 128, 128], "name": "conv2d_36/kernel"}, {"dtype": "float32", "shape": [1, 7, 128, 128], "name": "conv2d_37/kernel"}, {"dtype": "float32", "shape": [7, 1, 128, 128], "name": "conv2d_38/kernel"}, {"dtype": "float32", "shape": [1, 7, 128, 192], "name": "conv2d_39/kernel"}, {"dtype": "float32", "shape": [1, 1, 64, 80], "name": "conv2d_4/kernel"}, {"dtype": "float32", "shape": [1, 1, 768, 192], "name": "conv2d_40/kernel"}, {"dtype": "float32", "shape": [1, 1, 768, 192], "name": "conv2d_41/kernel"}, {"dtype": "float32", "shape": [1, 1, 768, 160], "name": "conv2d_42/kernel"}, {"dtype": "float32", "shape": [1, 7, 160, 160], "name": "conv2d_43/kernel"}, {"dtype": "float32", "shape": [7, 1, 160, 192], "name": "conv2d_44/kernel"}, {"dtype": "float32", "shape": [1, 1, 768, 160], "name": "conv2d_45/kernel"}, {"dtype": "float32", "shape": [7, 1, 160, 160], "name": "conv2d_46/kernel"}, {"dtype": "float32", "shape": [1, 7, 160, 160], "name": "conv2d_47/kernel"}, {"dtype": "float32", "shape": [7, 1, 160, 160], "name": "conv2d_48/kernel"}, {"dtype": "float32", "shape": [1, 7, 160, 192], "name": "conv2d_49/kernel"}, {"dtype": "float32", "shape": [3, 3, 80, 192], "name": "conv2d_5/kernel"}, {"dtype": "float32", "shape": [1, 1, 768, 192], "name": "conv2d_50/kernel"}, {"dtype": "float32", "shape": [1, 1, 768, 192], "name": "conv2d_51/kernel"}, {"dtype": "float32", "shape": [1, 1, 768, 160], "name": "conv2d_52/kernel"}, {"dtype": "float32", "shape": [1, 7, 160, 160], "name": "conv2d_53/kernel"}, {"dtype": "float32", "shape": [7, 1, 160, 192], "name": "conv2d_54/kernel"}, {"dtype": "float32", "shape": [1, 1, 768, 160], "name": "conv2d_55/kernel"}, {"dtype": "float32", "shape": [7, 1, 160, 160], "name": "conv2d_56/kernel"}, {"dtype": "float32", "shape": [1, 7, 160, 160], "name": "conv2d_57/kernel"}, {"dtype": "float32", "shape": [7, 1, 160, 160], "name": "conv2d_58/kernel"}, {"dtype": "float32", "shape": [1, 7, 160, 192], "name": "conv2d_59/kernel"}, {"dtype": "float32", "shape": [1, 1, 192, 64], "name": "conv2d_6/kernel"}, {"dtype": "float32", "shape": [1, 1, 768, 192], "name": "conv2d_60/kernel"}, {"dtype": "float32", "shape": [1, 1, 768, 192], "name": "conv2d_61/kernel"}, {"dtype": "float32", "shape": [1, 1, 768, 192], "name": "conv2d_62/kernel"}, {"dtype": "float32", "shape": [1, 7, 192, 192], "name": "conv2d_63/kernel"}, {"dtype": "float32", "shape": [7, 1, 192, 192], "name": "conv2d_64/kernel"}, {"dtype": "float32", "shape": [1, 1, 768, 192], "name": "conv2d_65/kernel"}, {"dtype": "float32", "shape": [7, 1, 192, 192], "name": "conv2d_66/kernel"}, {"dtype": "float32", "shape": [1, 7, 192, 192], "name": "conv2d_67/kernel"}, {"dtype": "float32", "shape": [7, 1, 192, 192], "name": "conv2d_68/kernel"}, {"dtype": "float32", "shape": [1, 7, 192, 192], "name": "conv2d_69/kernel"}, {"dtype": "float32", "shape": [1, 1, 192, 48], "name": "conv2d_7/kernel"}, {"dtype": "float32", "shape": [1, 1, 768, 192], "name": "conv2d_70/kernel"}, {"dtype": "float32", "shape": [1, 1, 768, 192], "name": "conv2d_71/kernel"}, {"dtype": "float32", "shape": [3, 3, 192, 320], "name": "conv2d_72/kernel"}, {"dtype": "float32", "shape": [1, 1, 768, 192], "name": "conv2d_73/kernel"}, {"dtype": "float32", "shape": [1, 7, 192, 192], "name": "conv2d_74/kernel"}, {"dtype": "float32", "shape": [7, 1, 192, 192], "name": "conv2d_75/kernel"}, {"dtype": "float32", "shape": [3, 3, 192, 192], "name": "conv2d_76/kernel"}, {"dtype": "float32", "shape": [1, 1, 1280, 320], "name": "conv2d_77/kernel"}, {"dtype": "float32", "shape": [1, 1, 1280, 384], "name": "conv2d_78/kernel"}, {"dtype": "float32", "shape": [1, 3, 384, 384], "name": "conv2d_79/kernel"}, {"dtype": "float32", "shape": [5, 5, 48, 64], "name": "conv2d_8/kernel"}, {"dtype": "float32", "shape": [3, 1, 384, 384], "name": "conv2d_80/kernel"}, {"dtype": "float32", "shape": [1, 1, 1280, 448], "name": "conv2d_81/kernel"}, {"dtype": "float32", "shape": [3, 3, 448, 384], "name": "conv2d_82/kernel"}, {"dtype": "float32", "shape": [1, 3, 384, 384], "name": "conv2d_83/kernel"}, {"dtype": "float32", "shape": [3, 1, 384, 384], "name": "conv2d_84/kernel"}, {"dtype": "float32", "shape": [1, 1, 1280, 192], "name": "conv2d_85/kernel"}, {"dtype": "float32", "shape": [1, 1, 2048, 320], "name": "conv2d_86/kernel"}, {"dtype": "float32", "shape": [1, 1, 2048, 384], "name": "conv2d_87/kernel"}, {"dtype": "float32", "shape": [1, 3, 384, 384], "name": "conv2d_88/kernel"}, {"dtype": "float32", "shape": [3, 1, 384, 384], "name": "conv2d_89/kernel"}, {"dtype": "float32", "shape": [1, 1, 192, 64], "name": "conv2d_9/kernel"}, {"dtype": "float32", "shape": [1, 1, 2048, 448], "name": "conv2d_90/kernel"}, {"dtype": "float32", "shape": [3, 3, 448, 384], "name": "conv2d_91/kernel"}, {"dtype": "float32", "shape": [1, 3, 384, 384], "name": "conv2d_92/kernel"}, {"dtype": "float32", "shape": [3, 1, 384, 384], "name": "conv2d_93/kernel"}, {"dtype": "float32", "shape": [1, 1, 2048, 192], "name": "conv2d_94/kernel"}, {"dtype": "float32", "shape": [2048, 1000], "name": "predictions/kernel"}, {"dtype": "float32", "shape": [1000], "name": "predictions/bias"}]}]}